model_weights.pth (torch, 902859 bytes, 8 tensors)

conv1.weight f4 [32, 1, 3, 3]
-0.24496515 -0.13377771 0.171684 -0.07647345 0.54655516 0.07715068 0.31279787 -0.22042155
-0.3334736 0.090363264 0.28064114 0.1231646 -0.21538098 -0.48858452 -0.21260507 0.07361673
0.33781713 0.09488658 0.018457912 0.15490063 -0.71155584 0.33939648 0.3885281 -0.28744566
-0.036635023 0.49019706 0.17175306 0.27991596 -0.35815424 -0.5163572 0.39607647 0.48434013
0.50064075 -0.44489205 -0.11809962 0.012898239 -0.036421698 -0.18983963 -0.33164388 -0.185808
-0.18061319 -0.11342903 -0.02678962 -0.23068826 0.10513001 -0.09492026 -0.11518156 0.261513
-0.2644282 0.39973396 -0.06918327 0.17806403 0.2854178 -0.33905798 -0.33341384 -0.072924845
-0.1665673 -0.14133295 -0.24164243 -0.3359171 0.20207196 0.19926466 -0.0888629 -0.25478053
-0.030977428 0.13591346 0.0997862 0.2686368 -0.0061990917 0.15724787 -0.24169232 -0.035373464
0.5154719 -0.159612 -0.6201221 0.44943607 0.2481355 0.23878607 0.23127402 0.39775866
-0.044941097 0.5267868 -0.24712192 -0.19832514 -0.14825375 -0.24967575 0.25893515 -0.033490807
-0.3093421 0.4057949 -0.13810441 0.061318107 -0.10528664 -0.12504084 0.05236265 -0.21683033
0.19567154 -0.1643879 0.11323462 0.13111939 0.06764945 0.44012433 0.32919517 0.24417134
-0.06622081 -0.4711393 -0.37974393 -0.4196156 -0.18381564 0.29962763 0.23449694 -0.26840347
-0.41301632 -0.20522976 0.36024395 0.17381902 -0.24712977 0.06512911 0.0994076 -0.43314198
-0.31854007 0.2889167 -0.4591113 -0.05254628 0.24689822 0.4450948 -0.11996273 0.33277518
0.0086182 -0.16336663 0.01574796 -0.17134082 -0.25446895 0.06446299 0.33239356 0.20443492
0.11920374 0.06617262 0.18271911 0.07897637 0.37066028 -0.21480793 -0.24162754 -0.33177757
0.29196984 -0.014771322 -0.35950717 0.5452238 -0.24455458 -0.2634206 0.4408389 -0.3851607
-0.103608735 0.18149595 0.01969449 0.21792135 -0.3178082 0.042160388 0.35761192 -0.17422757
-0.40820128 0.51210594 0.0743954 0.3626234 0.46458274 -0.38431406 -0.5154894 -0.03679412
0.27863476 0.005731017 -0.37639856 -0.44537416 -0.23058362 -0.14275073 -0.41198772 -0.25514117
0.4088223 0.009110741 0.49341393 0.5798848 0.03112532 -0.20364116 0.2186155 -0.2503778
-0.27561656 -0.38744694 0.13950558 0.034788515 -0.03698731 -0.045443065 -0.036467906 -0.105500095
-0.12334509 0.071625024 0.14200014 0.0733097 -0.17618835 -0.04239033 0.58094496 0.025000727
-0.3367328 -0.10510284 -0.28258467 -0.08554535 -0.13246977 -0.012773533 -0.17715524 -0.43771836
0.016069688 -0.2221019 0.08891277 0.0022896787 0.40246215 -0.01830633 0.37196237 -0.17632021
-0.3412748 -0.3781718 -0.15966697 -0.23021302 -0.1241386 0.17137668 0.35555533 0.5373169
0.3114724 0.29084077 0.34591112 0.26021668 0.17335613 -0.051136613 -0.30009925 -0.39301854
-0.31953555 -0.04798341 0.03510879 -0.2271993 0.053992115 -0.15403324 -0.50419134 -0.43061763
0.5158384 0.33673567 0.3816186 0.25126418 0.04879948 -0.23449464 -0.20261888 -0.22274564
-0.085846335 0.028589735 -0.16955502 0.11052432 -0.14202757 -0.4955511 -0.030583497 0.52971524
00000000: 25d8 7abe 06fd 08be eecd 2f3e 1d9e 9cbd
00000010: 0aeb 0b3f 2d01 9e3d 0b27 a03e 30b6 61be
00000020: 0dbd aabe 6010 b93d 32b0 8f3e b93d fc3d
00000030: d58c 5cbe c027 fabe 25b5 59be 5ec4 963d
00000040: 5ef6 ac3e e553 c23d 0c35 973c 459e 1e3e
00000050: 8628 36bf 60c5 ad3e 28ed c63e 142c 93be
00000060: 9b0e 16bd 1cfb fa3e 09e0 2f3e 2551 8f3e
00000070: fe5f b7be fc2f 04bf 89ca ca3e 6efb f73e
00000080: fe29 003f e4c8 e3be 37de f1bd 2353 533c
00000090: eb2e 15bd 5265 42be 3acd a9be 7444 3ebe
000000a0: aaf2 38be 7b4d e8bd e875 dbbc 8b39 6cbe
000000b0: 674e d73d 8e65 c2bd 4fe4 ebbd 08e5 853e
000000c0: 2263 87be eea9 cc3e f5af 8dbd 6b56 363e
000000d0: 4822 923e 0299 adbe 38b5 aabe 9f59 95bd
000000e0: 9e90 2abe 96b9 10be 1d71 77be 53fd abbe
000000f0: f4eb 4e3e 090c 4c3e c1fd b5bd 9872 82be
00000100: 60c4 fdbc e62c 0b3e b55c cc3d c38a 893e
00000110: c021 cbbb 9605 213e 317e 77be c4e3 10bd
00000120: f7f5 033f 5471 23be 52c0 1ebf 7c1c e63e
00000130: 3c17 7e3e 5684 743e 19d3 6c3e 06a7 cb3e
00000140: 2814 38bd 80db 063f 870d 7dbe bf15 4bbe
00000150: d5cf 17be 00ab 7fbe 2693 843e a82d 09bd
00000160: 1662 9ebe 59c4 cf3e 3e6b 0dbe b228 7b3d
00000170: 86a0 d7bd b50a 00be 387a 563d c508 5ebe
00000180: 1f5e 483e 4d55 28be 8de7 e73d 2944 063e
00000190: cb8b 8a3d fa57 e13e 458c a83e 0d08 7a3e
000001a0: c79e 87bd 2c39 f1be cc6d c2be dbd7 d6be
000001b0: 2b3a 3cbe cb68 993e f71f 703e 2e6c 89be
000001c0: e076 d3be c027 52be e571 b83e 9dfd 313e
000001d0: 960f 7dbe 6962 853d 3696 cb3d c9c4 ddbe
000001e0: af17 a3be e4ec 933e a310 ebbe c53a 57bd
000001f0: e3d2 7c3e 77e3 e33e 05af f5bd 8261 aa3e
00000200: 5a33 0d3c 9549 27be de01 813c f873 2fbe
00000210: c149 82be 2c05 843d 7d2f aa3e 6357 513e
00000220: 1721 f43d 8385 873d b81a 3b3e 5dbe a13d
00000230: 2fc7 bd3e 9cf6 5bbe 366d 77be c0de a9be
00000240: 127d 953e 6a03 72bc 5311 b8be c993 0b3f
00000250: 846c 7abe 11df 86be a3b5 e13e c933 c5be
00000260: d130 d4bd 13da 393e 5756 a13c c626 5f3e
00000270: c2b7 a2be 5fb0 2c3d e918 b73e b668 32be
00000280: c2ff d0be 6019 033f 9e5c 983d c6a9 b93e
00000290: cadd ed3e d0c4 c4be 1df7 03bf 6eb5 16bd
000002a0: 37a9 8e3e 41cb bb3b 50b7 c0be 1508 e4be
000002b0: 1d1e 6cbe 3f2d 12be 0ef0 d2be dda1 82be
000002c0: 2851 d13e 3845 153c c0a0 fc3e 5573 143f
000002d0: 87fa fe3c 4f87 50be bedc 5f3e 8531 80be
000002e0: 9d1d 8dbe 725f c6be 8dda 0e3e 677e 0e3d
000002f0: 0180 17bd 8222 3abd 5f5f 15bd 6f10 d8bd
00000300: 5a9c fcbd 24b0 923d 7c68 113e 6523 963d
00000310: b86a 34be 7ca1 2dbd cfb8 143f 53ce cc3c
00000320: 3e68 acbe 2840 d7bd f0ae 90be 6732 afbd
00000330: 28a6 07be 1548 51bc 2f68 35be 9f1c e0be
00000340: 94a4 833c ae6e 63be e617 b63d 6f0e 163b
00000350: 850f ce3e 28f7 95bc da71 be3e 498d 34be
00000360: 92bb aebe bc9f c1be bd7f 23be f6bc 6bbe
00000370: 613c febd 5e7d 2f3e 590b b63e 9a8d 093f
00000380: 4f79 9f3e 15e9 943e 431b b13e 1f3b 853e
00000390: 4584 313e a074 51bd 9ca6 99be ba39 c9be
000003a0: 2a9a a3be 418a 44bd 3cce 0f3d efa6 68be
000003b0: d626 5d3d e4ba 1dbe af12 01bf ea79 dcbe
000003c0: fc0d 043f 9e68 ac3e 8363 c33e b3a5 803e
000003d0: f7e1 473d 5d1f 70be 537b 4fbe 6f17 64be
000003e0: 34d0 afbd 0535 ea3c d59f 2dbe 935a e23d
000003f0: ad6f 11be e0b8 fdbe 3e8a fabc 6b9b 073f

conv1.bias f4 [32]
-0.034539122 -0.13395466 -0.09100076 -0.25628614 -0.29224628 0.007415108 -0.3602732 -0.035983603
-0.1376585 -0.12794924 -0.0076509668 -0.12933375 -0.09411033 -0.23274268 -0.06084857 0.12078697
0.04266447 0.119207576 -0.0992083 -0.22879472 -0.13751979 0.042367302 -0.2660394 0.079329394
-0.059282947 -0.09479026 -0.057323474 -0.10835982 -0.056940835 -0.114799 -0.21050835 -0.01646314
00000000: e578 0dbd 692b 09be 9b5e babd f037 83be
00000010: 4ea1 95be 6ffa f23b bb75 b8be 8b63 13bd
00000020: 5af6 0cbe 2005 03be f6b4 fabb 1170 04be
00000030: ebbc c0bd 1954 6ebe 5a3c 79bd 295f f73d
00000040: f0c0 2e3d 1a23 f43d b92d cbbd 2a49 6abe
00000050: fdd1 0cbe 5689 2d3d 5136 88be 7377 a23d
00000060: add2 72bd 6521 c2bd 05cc 6abd c1eb ddbd
00000070: cb3a 69bd bd1b ebbd 808f 57be b5dd 86bc

conv2.weight f4 [64, 32, 3, 3]
0.03587414 0.022341615 0.045741178 0.021136303 0.17075801 0.082575895 -0.097803235 -0.034577634
0.03405802 0.044126272 0.08769466 0.035676584 0.05331942 -0.1295803 0.11555871 -0.28753752
0.041548364 -0.054961424 -0.13101602 -0.18596175 -0.09910558 0.022628658 -0.07794216 -0.07060139
0.1415676 -0.0006260601 -0.10046916 0.08263511 -0.30277118 -0.1557766 -0.05776263 -0.16371612
0.06811125 0.18732314 0.0052915653 -0.022252224 0.005742699 0.055807047 -0.15121241 0.037848447
0.011224431 -0.15268461 -0.13631263 -0.09723306 -0.0010973588 -0.102557376 -0.034536127 -0.004798068
0.106355056 0.1675173 0.025781125 0.007707673 0.012702477 -0.019189421 -0.041406155 -0.01629609
-0.1073555 -0.049689863 -0.18342829 -0.13382684 -0.112440124 0.048804082 0.085263036 -0.050365847
-0.054896705 0.07507782 -0.007564599 0.03882447 0.11502155 -0.022804596 -0.0012751226 0.00887185
-0.07020128 -0.12818182 0.01799322 0.0584401 -0.12237734 0.02031904 0.14170913 0.058471564
-0.06831475 0.045227595 0.06534162 -0.06783374 -0.008260215 0.036874782 0.0021943497 -0.13879108
0.030253429 0.13272908 -0.002850704 0.018777354 -0.17354013 0.045461804 -0.042349216 -0.20688792
-0.14440814 -0.03168934 0.03637737 0.053884283 -0.017857328 -0.054895394 -0.1662049 0.09858766
0.19721834 -0.12521037 0.08380771 0.012370788 0.018989703 -0.05165082 -0.08154651 -0.11684901
-0.17609918 -0.09074744 -0.09459349 -0.013658158 0.050228845 -0.013110073 0.042590063 0.02296057
0.013062083 -0.07193264 0.11990493 -0.081174836 0.18716681 0.06074044 0.06737936 0.10766448
0.11680591 -0.040854797 -0.109307826 -0.022135595 0.054097176 0.008357373 0.04877079 0.019854061
-0.10578108 0.06842944 -0.24253298 0.03480093 0.026272811 0.0064327857 -0.08493813 0.008904724
0.020921255 -0.22254044 -0.27035508 -0.03064038 -0.10744902 -0.059643164 -0.1152308 0.1069242
-0.052253865 -0.04366821 0.017259846 0.084257215 0.0090928115 -0.0799379 -0.083105996 0.04761544
-0.20859702 -0.0248705 0.0049343137 0.03858739 -0.004574997 -0.22653288 0.07967817 0.11709876
-0.07745075 0.062209267 0.09656973 -0.0016287884 0.02287542 0.16093473 -0.021644259 0.06933614
-0.05541894 -0.076018944 -0.26291817 -0.22788562 0.018698385 0.011351992 -0.0712313 -0.028058942
-0.12787557 -0.13715923 -0.18824595 -0.033937998 0.010645095 -0.082834296 -0.09335575 -0.054189675
0.0025703195 -0.015169079 -0.04201043 -0.106285945 -0.026229843 0.0066382135 -0.061242796 -0.09695128
-0.13100019 -0.055321325 -0.030981317 0.07048027 -0.12762102 0.03228776 0.028995631 -0.11628439
0.04352625 0.058374625 0.11617595 0.063446075 0.009263778 -0.039469566 -0.11499146 -0.12080329
0.0028076372 0.045029577 0.09447166 0.015896572 0.06267187 -0.15930787 -0.079175055 -0.17290771
0.0012099533 0.10570866 0.048690625 -0.08395629 -0.2094934 0.033516373 0.20914607 -0.14450312
0.11812255 0.073190756 -0.013226339 0.04441254 -0.020099014 0.045887616 -0.03459919 -0.031634275
-0.027917407 0.15285325 0.08022154 0.034318358 0.050979577 -0.12804787 0.052571762 -0.08189598
-0.043395497 -0.16925608 0.05293691 0.010732503 0.055784665 -0.1749942 -0.099694856 -0.07162343
00000000: c3f0 123d c305 b73c 1a5b 3b3d 0a26 ad3c
00000010: 30db 2e3e 8d1d a93d 104d c8bd 47a1 0dbd
00000020: 6c80 0b3d c0bd 343d 4299 b33d 9c21 123d
00000030: 7765 5a3d b3b0 04be 0caa ec3d 1e38 93be
00000040: 9e2e 2a3d 3b1f 61bd 1029 06be c26c 3ebe
00000050: def7 cabd bc5f b93c 24a0 9fbd 7697 90bd
00000060: 19f7 103e 2f1e 24ba c6c2 cdbd 993c a93d
00000070: d304 9bbe e783 1fbe 8298 6cbd 33a5 27be
00000080: e97d 8b3d a3d1 3f3e de64 ad3b 4c4a b6bc
00000090: 402d bc3b ee95 643d 6dd7 1abe f906 1b3d
000000a0: ade6 373c 5b59 1cbe 8a95 0bbe 2022 c7bd
000000b0: 40d5 8fba 9a09 d2bd c175 0dbd 1d39 9dbb
000000c0: aed0 d93d a889 2b3e f032 d33c a690 fc3b
000000d0: 0d1e 503c 2233 9dbc 8099 29bd 617f 85bc
000000e0: 33dd dbbd 9987 4bbd a0d4 3bbe e709 09be
000000f0: 0247 e6bd cae6 473d 639e ae3d 6b4c 4ebd
00000100: 5edb 60bd 66c2 993d 75e0 f7bb 6806 1f3d
00000110: 6b90 eb3d b4d0 babc 0422 a7ba 3c5b 113c
00000120: b0c5 8fbd 1842 03be 8466 933c e35e 6f3d
00000130: f9a0 fabd 1e74 a63c 331c 113e e17f 6f3d
00000140: 9be8 8bbd 9240 393d d4d1 853d 6aec 8abd
00000150: da55 07bc 030a 173d 14cf 0f3b 401f 0ebe
00000160: 0ad6 f73c 22ea 073e e0d2 3abb f7d2 993c
00000170: 81b4 31be 2836 3a3d 5f76 2dbd 6dda 53be
00000180: badf 13be aecc 01bd 7000 153d c4b5 5c3d
00000190: 8849 92bc fed9 60bd 9e31 2abe 54e8 c93d
000001a0: 9bf3 493e 2637 00be 60a3 ab3d d8ae 4a3c
000001b0: 4b90 9b3c cf8f 53bd db01 a7bd 894e efbd
000001c0: 5853 34be cbd9 b9bd 3bba c1bd 77c6 5fbc
000001d0: c3bc 4d3d a2cb 56bc eb72 2e3d ce17 bc3c
000001e0: 5902 563c 6c51 93bd b790 f53d fe3e a6bd
000001f0: a8a8 3f3e f8ca 783d 31fe 893d 327f dc3d
00000200: f037 ef3d 5c57 27bd c8dc dfbd b555 b5bc
00000210: 0095 5d3d 5ded 083c e1c3 473d fca4 a23c
00000220: c0a3 d8bd bc24 8c3d 915a 78be 6c8b 0e3d
00000230: 143a d73c 1eca d23b 0bf4 adbd 1fe5 113c
00000240: 0d63 ab3c a4e1 63be fb6b 8abe 8901 fbbc
00000250: 3b0e dcbd 644c 74bd 20fe ebbd 13fb da3d
00000260: 2608 56bd 70dd 32bd 8564 8d3c 0c8f ac3d
00000270: 04fa 143c 7bb6 a3bd 7a33 aabd 6808 433d
00000280: 759a 55be 38bd cbbc 06b0 a13b d00d 1e3d
00000290: dbe9 95bb 3cf8 67be 4f2e a33d 7ad1 ef3d
000002a0: 809e 9ebd 25cf 7e3d 5ac6 c53d 127d d5ba
000002b0: 3c65 bb3c 13cc 243e 4d4f b1bc 1b00 8e3d
000002c0: f8fe 62bd d2af 9bbd 369d 86be d95a 69be
000002d0: 5b2d 993c b5fd 393c b7e1 91bd dedb e5bc
000002e0: d0f1 02be 7873 0cbe 8cc3 40be 9202 0bbd
000002f0: c468 2e3c 07a5 a9bd 4d31 bfbd fef5 5dbd
00000300: ce72 283b bb87 78bc 2113 2cbd 72ac d9bd
00000310: f8df d6bc 5f85 d93b bad9 7abd 658e c6bd
00000320: ea24 06be 9d98 62bd 88cc fdbc f657 903d
00000330: 16af 02be 2c40 043d 3f88 ed3c 8326 eebd
00000340: 9548 323d 3b1a 6f3d a8ed ed3d 04f0 813d
00000350: 1ac7 173c d7aa 21bd a580 ebbd b767 f7bd
00000360: 5600 383b ef70 383d 5c7a c13d 8739 823c
00000370: 1c5a 803d 9a21 23be 8826 a2bd b80e 31be
00000380: 4c97 9e3a c87d d83d d26f 473d 46f1 abbd
00000390: 7085 56be 7748 093d 632a 563e a0f8 13be
000003a0: 3cea f13d 09e5 953d 49b3 58bc ece9 353d
000003b0: b0a6 a4bc a7f4 3b3d e1b7 0dbd f192 01bd
000003c0: 0cb3 e4bc 9085 1c3e 314b a43d 6891 0c3d
000003d0: f6cf 503d fb1e 03be 7d55 573d 14b9 a7bd
000003e0: 7abf 31bd 7751 2dbe 60d4 583d 61d7 2f3c
000003f0: 767e 643d ae31 33be d12c ccbd 4eaf 92bd

conv2.bias f4 [64]
0.019654319 -0.093743615 -0.07442442 0.016297067 -0.07066639 -0.024991626 -0.07592267 -0.017715788
0.005426805 -0.029425861 -0.07629384 0.029312264 -0.03476941 0.0035256173 -0.012785841 -0.08689908
0.06784511 0.038609497 -0.039430924 -0.045407802 -0.0023086148 -0.013224377 0.053328276 -0.07056175
-0.031507544 0.08226953 -0.03101613 -0.060024258 -0.08696945 -0.08046533 0.012791512 -0.07878874
-0.052121617 0.018870842 0.035024628 -0.055226818 -0.061228305 -0.04304557 -0.08483367 0.02531638
-0.005238526 -0.049199376 0.051563554 -0.055221718 0.05647542 -0.006109834 0.045138102 -0.104485966
-0.09511854 -0.07157369 -0.019624103 -0.09452972 -0.007620457 0.012549892 -0.011851389 -0.042873684
0.02137653 -0.009255759 -0.031057885 -0.013946128 -0.026634594 -0.04003712 -0.058703974 -0.0075980397
00000000: 1802 a13c a7fc bfbd d56b 98bd 6d81 853c
00000010: 8ab9 90bd 3dbb ccbc 587d 9bbd b320 91bc
00000020: 57d3 b13b 810e f1bc f23f 9cbd 4620 f03c
00000030: 5e6a 0ebd 0b0e 673b b47b 51bc 25f8 b1bd
00000040: 61f2 8a3d fe24 1e3d 5282 21bd 88fd 39bd
00000050: 214c 17bb 0fab 58bc c06e 5a3d ae82 90bd
00000060: 0e0e 01bd ed7c a83d 8a15 febc ffdb 75bd
00000070: 0a1d b2bd 02cb a4bd 7d93 513c fe5b a1bd
00000080: 7a7d 55bd 0697 9a3c fc75 0f3d 8435 62bd
00000090: 88ca 7abd 8d50 30bd 46bd adbd 4c64 cf3c
000000a0: f1a7 abbb 4985 49bd 4e34 533d 2b30 62bd
000000b0: c552 673d 0135 c8bb bbe2 383d bdfc d5bd
000000c0: 82cd c2bd 3a95 92bd bac2 a0bc cc98 c1bd
000000d0: 07b5 f9bb 109e 4d3c 542c 42bc 519c 2fbd
000000e0: d51d af3c 78a5 17bc 1b6d febc 4d7e 64bc
000000f0: cb30 dabc f7fd 23bd 9473 70bd faf8 f8bb

fc1.weight f4 [128, 1600]
0.073064946 0.021484016 0.056006152 0.08822305 -0.05742175 -0.15626796 -0.051499385 0.0733627
-0.020836959 -0.017023223 0.062388357 0.017244972 0.017107807 -0.041780215 0.0585185 0.1572142
0.13587503 -0.014987405 0.062263437 0.08635136 -0.081238 -0.0014259941 0.047274917 -0.055017143
0.041296937 -0.003149901 0.0041247946 -0.09442465 0.06491366 -0.016324274 -0.02746965 -0.07713842
-0.016801324 -0.06513701 0.013676189 0.04491608 0.0119634485 0.1073557 -0.04464701 -0.046778183
0.14166458 0.15766196 0.0151190255 0.026651606 -0.004978057 0.08796767 -0.017830824 0.0695815
-0.023174832 0.017205192 -0.048152667 -0.045423485 -0.03860617 0.023450635 0.023862856 -0.016464787
-0.0023631577 0.03154432 0.049612366 -0.0066097756 0.004716199 0.10067824 -0.04082903 0.03271743
0.0027465434 -0.08767388 -0.08377379 -0.11606786 0.08339313 0.011393537 -0.084891975 -0.171462
-0.15108223 0.015764173 0.06785246 -0.05152301 -0.09487664 -0.097796865 -0.0029077819 0.037336033
-0.005903621 -0.13817894 0.0043902528 -0.02698468 -0.02621302 0.05682148 -0.00070153445 0.06247658
-0.03825828 0.030314675 0.075700454 0.059580512 0.04795307 -0.0004228322 -0.027104957 0.025412971
0.09808025 0.022804026 0.026694566 0.09068648 -0.012497521 0.020380838 0.0423583 0.059768688
-0.048467174 -0.17957127 -0.13225947 -0.096242644 -0.14277714 0.015200311 -0.13733357 -0.21036088
-0.01688768 -0.06008956 -0.054488365 0.013802142 0.042013384 0.11348859 0.02124876 0.14398316
0.06757215 0.12647022 0.062169563 0.024013894 0.098139554 -0.0519127 -0.07216391 0.02527951
0.10792928 0.036282185 0.122608654 0.08439884 -0.016692221 -0.008723573 0.06732913 -0.095702976
-0.1404072 -0.050551265 -0.08882738 -0.02232167 -0.1677214 -0.3079378 -0.17612019 0.0089025125
0.14823471 -0.14082338 -0.097440265 0.023419714 -0.054897435 0.21150577 -0.048927166 -0.17766747
-0.051687524 -0.016764272 -0.10351884 0.014375517 0.08103821 -0.023491677 -0.03261647 -0.009928899
0.15302113 -0.010743219 0.09929774 -0.0858564 0.1097486 0.05207602 0.1962606 0.1128418
-0.041734416 -0.0863198 0.13393652 0.08853731 0.07644677 -0.05640125 0.076068155 0.0067781634
0.09895472 0.04226919 0.074774966 0.17936823 -0.11225996 0.0037660606 -0.0975117 -0.16999136
-0.017000364 0.107257284 0.0036488543 0.03366057 0.008572737 0.10629733 0.16832002 0.16002609
0.11219356 -0.11746896 0.052204262 0.039930668 -0.035471473 -0.034125157 0.00696063 0.091447204
0.06416273 0.12583935 -0.1030293 0.07992221 0.21993281 -0.056329954 -0.030322019 0.050254926
0.08829823 0.17805739 -0.042294547 0.012751646 0.041465152 -0.0145485075 0.10102546 0.03136732
0.067720525 -0.012366478 -0.024800628 0.085685425 0.03427325 -0.043072287 -0.022555666 -0.058431014
0.030699113 0.0064476733 0.098380245 0.048833586 -0.05033793 0.081435 -0.045849048 -0.050272264
-0.067859076 0.01820238 -0.07481125 0.18523669 0.017391926 0.12640537 -0.0068410933 -0.03839777
0.09887998 0.23712608 0.0860376 -0.09130432 -0.1334245 0.15046373 0.21785678 0.000751968
-0.14342736 -0.106963836 0.04035025 0.021394465 -0.06504347 -0.024430579 -0.04702839 -0.17892212
00000000: 13a3 953d 3fff af3c b566 653d 49ae b43d
00000010: 1233 6bbd b504 20be 05f1 52bd 2f3f 963d
00000020: 45b2 aabc 4974 8bbc ef8a 7f3d 5445 8d3c
00000030: ac25 8c3c bb21 2bbd 18b1 6f3d c2fc 203e
00000040: d322 0b3e bc8d 75bc f207 7f3d fbd8 b03d
00000050: 1c60 a6bd 6ce8 baba 58a3 413d a859 61bd
00000060: fa26 293d 926e 4ebb 4929 873b b661 c1bd
00000070: 74f1 843d 7cba 85bc 0808 e1bc bffa 9dbd
00000080: eea2 89bc 8d66 85bd 1812 603c ecf9 373d
00000090: 5702 443c 4edd db3d c8df 36bd 7b9a 3fbd
000000a0: 8510 113e 2372 213e cab5 773c 7854 da3c
000000b0: f81e a3bb 6528 b43d f311 92bc bf80 8e3d
000000c0: 25d9 bdbc e7f1 8c3c bb3b 45bd fa0d 3abd
000000d0: 8121 1ebd 8c1b c03c 097c c33c 29e1 86bc
000000e0: 35df 1abb 9e34 013d 5636 4b3d d196 d8bb
000000f0: 588a 9a3b 6530 ce3d 573c 27bd b602 063d
00000100: 5aff 333b 5d8e b3bd 9891 abbd fcb4 edbd
00000110: 04ca aa3d f5ab 3a3c d8db adbd bc93 2fbe
00000120: 4db5 1abe de23 813c 3bf6 8a3d cb09 53bd
00000130: af4e c2bd b949 c8bd 7c90 3ebb abed 183d
00000140: 2a73 c1bb c87e 0dbe 1cdc 8f3b fa0e ddbc
00000150: b0bc d6bc a4bd 683d 2ee7 37ba 71e7 7f3d
00000160: b7b4 1cbd 7b56 f83c d708 9b3d b20a 743d
00000170: 706a 443d 94af ddb9 370b debc dd2e d03c
00000180: 4cde c83d 82cf ba3c 90ae da3c d5b9 b93d
00000190: 67c2 4cbc b7f5 a63c e67f 2d3d 03d0 743d
000001a0: 8485 46bd 88e1 37be 076f 07be dd1a c5bd
000001b0: 2c34 12be ba0a 793c 2ca1 0cbe d868 57be
000001c0: 0858 8abc 7820 76bd 312f 5fbd 6122 623c
000001d0: 3a16 2c3d b56c e83d e111 ae3c 5270 133e
000001e0: 4463 8a3d 6981 013e 83a5 7e3d c9b8 c43c
000001f0: 64fd c83d 69a2 54bd acca 93bd fa16 cf3c
00000200: 070a dd3d a19c 143d 3f1a fb3d 4dd9 ac3d
00000210: 20be 88bc 51ed 0ebc dbe3 893d ecff c3bd
00000220: e8c6 0fbe d80e 4fbd 21eb b5bd efdb b6bc
00000230: 29bf 2bbe 06aa 9dbe da58 34be d8db 113c
00000240: d7ca 173e 0134 10be c38e c7bd b3da bf3c
00000250: 22dc 60bd f894 583e da67 48bd 76ee 35be
00000260: 4cb6 53bd 3a55 89bc b001 d4bd 4a87 6b3c
00000270: 5cf7 a53d 9e71 c0bc d998 05bd d2ac 22bc
00000280: 92b1 1c3e 5404 30bc 9d5c cb3d 7bd5 afbd
00000290: e0c3 e03d aa4d 553d 8af8 483e 9a19 e73d
000002a0: b5f1 2abd 6fc8 b0bd a826 093e 0d53 b53d
000002b0: 2090 9c3d ff04 67bd 9fc9 9b3d 5b1b de3b
000002c0: c6a8 ca3d 7522 2d3d 9e23 993d 4eac 373e
000002d0: 8de8 e5bd 03d0 763b 37b4 c7bd 3712 2ebe
000002e0: 5944 8bbc b5a9 db3d 9e21 6f3b aadf 093d
000002f0: aa74 0c3c 6ab2 d93d 155c 2c3e e1dd 233e
00000300: bdc5 e53d 9193 f0bd 23d4 553d 578e 233d
00000310: 894a 11bd d2c6 0bbd ff15 e43b ac48 bb3d
00000320: c067 833d 08dc 003e 0701 d3bd 41ae a33d
00000330: 1136 613e 3dba 66bd e265 f8bc 1cd8 4d3d
00000340: b4d5 b43d ad54 363e 0c3d 2dbd 48ec 503c
00000350: 5dd7 293d dd5c 6ebc 70e6 ce3d 057b 003d
00000360: 0fb1 8a3d c59c 4abc b02a cbbc d77b af3d
00000370: 1b62 0c3d 916c 30bd a9c6 b8bc 5c55 6fbd
00000380: b57c fb3c 0147 d33b 957b c93d ba05 483d
00000390: 252f 4ebd 65c7 a63d 36cc 3bbd 4aea 4dbd
000003a0: b3f9 8abd 281d 953c a436 99bd b0ae 3d3e
000003b0: 8379 8e3c 6970 013e 402b e0bb fb46 1dbd
000003c0: 9681 ca3d 2ed1 723e 7b34 b03d c2fd babd
000003d0: 6fa0 08be 2a13 1a3e d915 5f3e b81f 453a
000003e0: 9fde 12be db0f dbbd 4e46 253d 7243 af3c
000003f0: 8335 85bd a322 c8bc d7a0 40bd 5c37 37be

fc1.bias f4 [128]
-0.01145367 0.026241144 0.0067047398 -0.020251505 -0.017461127 0.047274925 0.045834336 -0.028002393
-0.01271928 -0.034467548 0.010342342 -0.00225643 0.03968461 -0.02586192 0.0050983494 -0.008447139
0.05657913 0.010227041 0.015260832 0.032160882 -0.024442367 -0.002248799 0.026710892 0.0039765406
0.022916852 -0.052622568 -0.014193295 -0.011917422 0.037525456 -0.019631688 -0.0032933052 -0.044830877
-0.0023205744 -0.0019964257 -0.01597467 -0.0048180474 -0.009771147 -0.03575671 0.016305346 0.06280226
-0.045380328 0.0533202 0.015325747 -0.008451213 0.006220106 0.046663463 -0.005671914 0.010474062
-0.0057421806 0.053545993 -0.03232206 -0.076133676 -0.013284326 -0.0066865124 0.014973661 -0.025270255
-0.016793016 0.011117128 -0.04321962 0.051979348 -0.052537404 -0.004135609 0.031256005 -0.006875757
0.018692138 -0.03510875 -0.029952416 -0.009477406 -0.02894877 0.019262318 0.013877683 0.029252682
-0.036531117 0.037053615 -0.01516015 -0.02613634 -0.038864978 0.008820326 0.012793004 -0.044098943
-0.0015596634 -0.0028754275 0.010044304 -0.03800256 -0.00028391738 0.00040270045 -0.009537071 -0.00437985
0.0046711313 -0.02778984 -0.0032019482 -0.0031834417 -0.026948754 0.076595634 -0.029131856 -0.002084736
-0.020033944 0.020045977 -0.028954575 0.015856871 0.040390156 0.037742503 0.04143858 0.011329586
0.0093715135 -0.018831844 0.008286941 -0.022234125 -0.039356906 -0.008583023 0.025182994 -0.0046177898
-0.01900532 -0.02853111 1.49545185e-05 0.029125465 0.015758079 0.04602046 -0.024132872 -0.019737622
-0.0041034054 0.00885218 -0.05155239 -0.0607227 0.018484965 -0.028264951 -0.055877164 -0.021176998
00000000: 2da8 3bbc abf7 d63c 6fb3 db3b 7ce6 a5bc
00000010: a30a 8fbc 5aa3 413d c9bc 3b3d 4665 e5bc
00000020: 8764 50bc d82d 0dbd ed72 293c 9de0 13bb
00000030: 548c 223d 61dc d3bc 0e10 a73b de65 0abc
00000040: 85bf 673d 528f 273c 9208 7a3c 21bb 033d
00000050: 5c3b c8bc 9660 13bb cdd0 da3c a44d 823b
00000060: 1fbc bb3c c38a 57bd fe8a 68bc 4a41 43bc
00000070: 4bb4 193d a2d2 a0bc 7ed4 57bb 95a0 37bd
00000080: c714 18bb 77d6 02bb 50dd 82bc b6e0 9dbb
00000090: 2917 20bc a175 12bd ca92 853c 799e 803d
000000a0: b9e0 39bd 4866 5a3d d818 7b3c f576 0abc
000000b0: 08d2 cb3b 3022 3f3d 77db b9bb 669b 2b3c
000000c0: e728 bcbb 0b53 5b3d 2364 04bd f9eb 9bbd
000000d0: 80a6 59bc 881a dbbb 1654 753c 9103 cfbc
000000e0: 8291 89bc 9d24 363c 0e07 31bd 4ce8 543d
000000f0: 7631 57bd 0184 87bb 4c06 003d 084e e1bb
00000100: 4120 993c 31ce 0fbd c55e f5bc 1f47 1bbc
00000110: f925 edbc 02cc 9d3c 395f 633c 52a3 ef3c
00000120: a7a1 15bd 88c5 173d 4762 78bc e11b d6bc
00000130: e230 1fbd 2183 103c bf99 513c 18a1 34bd
00000140: 9f6d ccba ab71 3cbb dd90 243c 93a8 1bbd
00000150: bfda 94b9 8a21 d339 6041 1cbc d884 8fbb
00000160: 4a10 993b 85a7 e3bc c7d7 51bb 4aa1 50bb
00000170: a2c3 dcbc 2cde 9c3d eea5 eebc 11a0 08bb
00000180: 3a1e a4bc 7637 a43c 2532 edbc 45e6 813c
00000190: 2670 253d e297 1a3d 80bb 293d ba9f 393c
000001a0: fa8a 193c 3d45 9abc f3c5 073c 5724 b6bc
000001b0: b534 21bd cf9f 0cbc 914c ce3c d450 97bb
000001c0: 0bb1 9bbc 13ba e9bc 2be5 7a37 8798 ee3c
000001d0: 1617 813c f37f 3c3d 4db2 c5bc cbb0 a1bc
000001e0: dc75 86bb bc08 113c 9928 53bd 5eb8 78bd
000001f0: c86d 973c e68b e7bc 74df 64bd 627b adbc

fc2.weight f4 [10, 128]
0.111037396 0.15196927 -0.052035987 -0.08494914 -0.073094316 -0.46110186 -0.042591482 0.06906878
0.004168715 0.010368669 -0.004395308 -0.043208256 -0.06802879 -0.07553097 0.009542927 0.098092
0.037059907 0.15152615 -0.22376497 -0.21226536 -0.035060894 -0.0680907 0.09704971 -0.07480901
0.022240423 -0.03674437 0.043583184 -0.01704501 0.19627742 0.055656593 -0.09062898 -0.18039596
0.06347634 0.027851662 0.07926376 -0.0556872 0.07326498 -0.14948088 0.14287467 0.1206824
0.01681448 -0.075987466 0.09894416 -0.17209779 0.075741515 0.11558164 0.028051304 0.0145710325
-0.00095141557 -0.036885966 -0.14222303 -0.22294354 0.09206562 0.030906994 -0.0318862 -0.06426866
-0.004434735 -0.13243146 -0.23743378 0.1237807 -0.04044446 -0.028286884 0.06001928 0.053185623
0.023804164 -0.050772592 0.020853069 0.034716234 0.002774832 0.013387653 -0.06482496 0.1296834
-0.02245561 -0.058112964 0.05338994 -0.13422279 0.04472875 -0.27458742 -0.19242795 -0.07150806
0.1022595 0.0053035556 -0.00018154396 -0.07787755 -0.1061259 -0.05486781 0.04376125 0.020041082
0.14062953 -0.0054531503 0.021580763 0.029897725 0.0026163661 0.04491876 0.053466287 -0.1421754
0.03956982 0.109880514 0.004973741 0.04187203 -0.046636526 0.14440158 -0.30111763 0.010599307
0.15919116 -0.060424853 -0.07790592 0.06895558 -0.13824013 -0.07437341 0.10729385 -0.057606693
-0.09506765 -0.26386252 0.035990287 0.21943803 0.011978116 -0.18429697 0.06985794 -0.08252687
0.013522261 -0.27233487 -0.1674342 0.06721248 0.05155956 -0.013370288 -0.07640157 0.055762358
-0.16704947 -0.24110322 -0.01130584 -0.009238575 -0.08007887 0.15989968 0.09782705 0.07769972
-0.031888977 -0.0076366216 -0.0054557617 0.021967987 0.13484913 0.050833017 -0.006269246 -0.043655153
0.026742985 -0.03546352 0.13154013 0.026991017 -0.15943089 0.050151963 0.15879577 -0.12136123
0.083300956 -0.2747133 -0.01030573 0.07718708 0.022300055 -0.022933662 0.011744529 -0.016356869
0.05405057 0.030016003 -0.08794134 -0.037741717 0.0035119506 -0.054855745 -0.09622561 -0.045100894
-0.14753142 0.09131141 -0.08226456 0.0411563 0.044670794 0.06499959 -0.27306953 -0.033139266
-0.0027675098 0.12129661 -0.16942824 -0.008771163 -0.2500029 -0.10751077 0.06510731 -0.016805043
-0.05424305 0.0791756 0.042102028 0.17204176 0.032372233 -0.076437585 -0.014167481 -0.17616244
-0.0052728807 -0.06891546 -0.14463122 -0.10820442 0.08158534 -0.013494483 -0.072766796 0.07993444
-0.08291623 0.116903335 0.059729803 -0.03344157 -0.09626515 0.124151684 0.045723587 -0.16097175
-0.1309683 0.22776872 -0.089195006 0.015159206 -0.21903518 -0.07635299 -0.08714505 -0.018207418
-0.08208077 -0.048043404 0.047442533 0.07339549 -0.051555086 0.31409016 -0.028915724 0.040008485
-0.04292698 0.1299023 -0.030820288 -0.052399863 0.1079614 0.07126881 0.030190408 -0.05379272
-0.03892844 -0.053964473 -0.040839765 0.02562094 -0.05949014 0.06353325 0.069107704 -0.026124038
-0.077404924 -0.059322022 0.041420236 0.13400592 -0.04928823 0.08732497 0.053246096 0.07074548
0.032984834 0.07523623 -0.1311255 -0.09933469 -0.08692849 0.025755486 -0.12839916 -0.06890698
00000000: 9367 e33d d59d 1b3e b023 55bd d1f9 adbd
00000010: 79b2 95bd 8b15 ecbe 6874 2ebd ef73 8d3d
00000020: b799 883b 5ae1 293c 8406 90bb 24fb 30bd
00000030: ae52 8bbd fbaf 9abd f059 1c3c 75e4 c83d
00000040: 21cc 173d ac29 1b3e a522 65be 175c 59be
00000050: 039c 0fbd 2373 8bbd 00c2 c63d 7735 99bd
00000060: 8c31 b63c 4481 16bd 4884 323d faa1 8bbc
00000070: f3fc 483e 2bf8 633d b09b b9bd b8b9 38be
00000080: e2ff 813d 2b29 e43c 0a55 a23d 4318 64bd
00000090: f30b 963d 8411 19be bd4d 123e 5628 f73d
000000a0: 85be 893c 519f 9bbd 3ca3 ca3d 673a 30be
000000b0: 5e1e 9b3d 11b6 ec3d d9cb e53c 57bb 6e3c
000000c0: 6b68 79ba bd15 17bd eaa2 11be 504b 64be
000000d0: e68c bc3d aa30 fd3c 1b9b 02bd 4a9f 83bd
000000e0: 4151 91bb 1d9c 07be d721 73be bc80 fd3d
000000f0: 17a9 25bd e5b9 e7bc c7d6 753d 2bd9 593d
00000100: f300 c33c ecf6 4fbd 0ed4 aa3c 9c32 0e3d
00000110: f5d9 353b e357 5b3c f3c2 84bd bacb 043e
00000120: d4f4 b7bc dc07 6ebd 69af 5a3d b371 09be
00000130: 7e35 373d b996 8cbe d50b 45be d172 92bd
00000140: 6e6d d13d 73c9 ad3b d65c 3eb9 447e 9fbd
00000150: 8958 d9bd 12bd 60bd ff3e 333d 322d a43c
00000160: 3001 103e 57b0 b2bb 24ca b03c 13ec f43c
00000170: 5777 2b3b bcfc 373d 77ff 5a3d 6e96 11be
00000180: f713 223d 0909 e13d c3fa a23b 0182 2b3d
00000190: f105 3fbd 02de 133e 172c 9abe b7a8 2d3c
000001a0: 0203 233e 0d80 77bd 248d 9fbd 9538 8d3d
000001b0: d28e 0dbe 1651 98bd e1bc db3d fff4 6bbd
000001c0: d4b2 c2bd fd18 87be 8d6a 133d 5db4 603e
000001d0: dc3f 443c 58b8 3cbe ae11 8f3d d903 a9bd
000001e0: 798c 5d3c 7a6f 8bbe df73 2bbe b2a6 893d
000001f0: 1e30 533d 0d0f 5bbc 6d78 9cbd 1267 643d
00000200: 040f 2bbe c3e3 76be 213c 39bc 645d 17bc
00000210: 6400 a4bd bebc 233e 8c59 c83d 0821 9f3d
00000220: 049e 02bd a03c fabb 3fc6 b2bb 35f6 b33c
00000230: e415 0a3e 4836 503d 3f6e cdbb bfcf 32bd
00000240: 1b14 db3c 3242 11bd 75b2 063e 441c dd3c
00000250: da41 23be 256c 4d3d 5c9b 223e 3d8c f8bd
00000260: b199 aa3d 39a7 8cbe 5dd9 28bc 4314 9e3d
00000270: 9bae b63c 60df bbbc 206c 403c d7fe 85bc
00000280: 2164 5d3d 1fe4 f53c 971a b4bd 0f97 1abd
00000290: c128 663b 6bb0 60bd ef11 c5bd b7bb 38bd
000002a0: 7a12 17be 7a01 bb3d 527a a8bd 8293 283d
000002b0: b9f8 363d 811e 853d c5cf 8bbe 0abd 07bd
000002c0: 1c5f 35bb 5b6a f83d 997e 2dbe edb4 0fbc
000002d0: 6100 80be 9b2e dcbd fb56 853d bbaa 89bc
000002e0: f62d 5ebd d126 a23d 2d73 2c3d b72b 303e
000002f0: bf98 043d 4f8b 9cbd b91e 68bc ed63 34be
00000300: 21c8 acbb 8c23 8dbd 351a 14be 479a ddbd
00000310: 3716 a73d f717 5dbc c206 95bd abb4 a33d
00000320: fccf a9bd 046b ef3d 3da7 743d 07fa 08bd
00000330: aa26 c5bd 3d43 fe3d a848 3b3d c7d5 24be
00000340: 8e1c 06be 343c 693e dfab b6bd 525e 783c
00000350: c24a 60be f55e 9cbd 1b79 b2bd b927 95bc
00000360: f619 a8bd 29c9 44bd 1a53 423d 6050 963d
00000370: 6d2b 53bd 6dd0 a03e abe0 ecbc f0df 233d
00000380: 33d4 2fbd 1c05 053e d47a fcbc 3da1 56bd
00000390: de1a dd3d 62f5 913d e051 f73c c155 5cbd
000003a0: 6e73 1fbd da09 5dbd 9947 27bd 01e3 d13c
000003b0: efab 73bd b81d 823d 5788 8d3d 1402 d6bc
000003c0: 7986 9ebd a6fb 72bd 44a8 293d d938 093e
000003d0: 74e2 49bd 6fd7 b23d 9418 5a3d 02e3 903d
000003e0: 1b1b 073d 7415 9a3d c345 06be fc6f cbbd
000003f0: 9007 b2bd 2bfd d23c 127b 03be 1a1f 8dbd

fc2.bias f4 [10]
0.079163335 0.072302975 0.06195929 0.04631588 0.014411011 0.018121872 -0.13375117 0.062144708
-0.009528513 -0.017857062
00000000: 6320 a23d 9513 943d 06c9 7d3d b8b5 3d3d
00000010: 291c 6c3c 5274 943c 11f6 08be 738b 7e3d
00000020: 7b1d 1cbc f948 92bc
