model_weights.pth (torch, 902859 bytes, 8 tensors)

conv1.weight f4 [32, 1, 3, 3]
000000 63 b6 a3 3d de 66 51 be cf 08 82 3d 87 ca 1f be
       0.07993772 -0.20449397 0.06349336 -0.15604602
000010 9d b2 35 be b4 a6 10 3e ff 8f b3 3d f6 d2 b6 3e
       -0.17743917 0.14126092 0.087676995 0.35707825
000020 60 43 91 3d d5 36 2d be 8c 29 d2 bd ac da d8 bd
       0.07092929 -0.16915448 -0.10261831 -0.10588583
000030 48 22 6f 3e 59 a9 72 3e 01 c0 f5 bc 61 ed 41 bb
       0.23352921 0.23697414 -0.029998781 -0.0029590952
000040 4f 68 94 be 61 8e 6f 3e 87 0c f0 bd 21 79 a1 3e
       -0.2898583 0.23394157 -0.117211394 0.31537727
000050 4a 63 3f 3e 68 62 8d be 18 a9 bd be cc 97 08 3e
       0.1869022 -0.2761414 -0.3704307 0.13339156
000060 c2 32 5d 3e 0f e6 43 bd 15 f8 80 bd a5 14 7a 3e
       0.21601394 -0.047826823 -0.06297318 0.24421938
000070 0d 8f c5 be 85 55 c6 bd 80 02 c1 3e 49 76 95 3d
       -0.38585702 -0.0968428 0.3769722 0.07297952
000080 27 1d ec be 16 9b 48 3c 87 0b d6 3e 8c a4 1c be
       -0.4611599 0.012244007 0.4180567 -0.15297145
000090 6c 32 fa 3d 0b 6b c1 3d 4f b5 60 be 0b 09 ef 3d
       0.122166485 0.09444245 -0.21944164 0.11671647
0000a0 25 95 8e 3e ac 6a ba 3e e4 1d a8 bd 69 40 06 be
       0.27848163 0.3640951 -0.08208826 -0.13110508
0000b0 77 20 bb be 42 27 12 be 56 60 bb 3e 58 db 8e 3e
       -0.36548206 -0.14272788 0.36596936 0.2790172
0000c0 88 42 bb 3e aa 04 5e 3e 0c 81 ba be c1 8f 61 3e
       0.36574197 0.21681467 -0.3642658 0.22027494
0000d0 eb 9e 48 be 6a 8b 7c be 34 7d 9c 3d db 0c 1f bd
       -0.19591872 -0.24662557 0.07641068 -0.03883062
0000e0 c8 4b 45 3d a4 25 bf be 4f 32 cd 3e 7c 72 10 bd
       0.048167974 -0.37333405 0.40077445 -0.03526543
0000f0 cd 09 5a be 7a df c5 3e 8c 7f 9f bd d8 3a 6c 3e
       -0.21292801 0.38647062 -0.077879995 0.23069322
000100 57 de cc be 1d 94 c8 be 13 cb e8 3e d1 76 5e 3e
       -0.40013382 -0.391755 0.45467433 0.21725012
000110 08 ed 57 be e9 51 00 3e a9 1f b7 3e 15 c4 b0 3d
       -0.21086514 0.12531246 0.35766342 0.0863115
000120 02 2e 97 3e 2c 40 cd be f5 5f aa bd 02 7a ad 3e
       0.2952729 -0.40088022 -0.083190836 0.33882147
000130 6a 78 1b 3e 86 0f db be c7 6f 4e 3d 0c 07 e0 3e
       0.15182653 -0.4278528 0.050399568 0.43755376
000140 32 9b 0b 3e 6e 34 0f be 3d 26 84 be b1 6e 36 bc
       0.13633421 -0.13984844 -0.25810423 -0.011134789
000150 df 2d 5e bd 69 1d 70 be e3 43 34 be 4b e3 92 be
       -0.054242965 -0.23448719 -0.17604022 -0.28689036
000160 cf 11 a7 be 11 75 d2 3d a0 0f be be ca d5 92 3e
       -0.32630774 0.10276235 -0.37121296 0.28678733
000170 fb 3a b5 3e 86 44 3d 3e a7 e0 87 3e 63 62 0f 3e
       0.3539656 0.18483171 0.26538584 0.14002375
000180 2a 0b d9 3e 9f 49 a2 3b c0 e8 94 be 71 45 60 3d
       0.4239133 0.004952624 -0.29083824 0.054753724
000190 f7 8b 13 bd 9b b8 99 3e 2b 76 8c 3e e9 d6 7c bc
       -0.036022153 0.30023655 0.27433905 -0.015432098
0001a0 41 bb bc be da 83 f1 bd 7f cb 98 3e 7e 91 d2 3d
       -0.36861613 -0.11792727 0.29842755 0.10281657
0001b0 bb 55 37 3d 50 a8 ba 3d cb 43 11 be 39 93 4f be
       0.044759493 0.09114134 -0.14186017 -0.20271005
0001c0 ec f0 f7 3d 26 5b 17 be ef 53 c3 3e 04 62 97 bd
       0.12106499 -0.14780864 0.38149974 -0.07391742
0001d0 33 57 39 be d5 ca aa be ec c2 79 be 5b ee 64 3e
       -0.1809967 -0.33357874 -0.24390763 0.2235655
0001e0 0e a2 b4 3d fc 48 5d be 47 b1 f5 3e 14 cd 67 be
       0.08819972 -0.21609873 0.47986814 -0.22636825
0001f0 c6 94 bc 3e 34 f8 1f be 4b 0d b1 3d fe af 96 3d
       0.36832255 -0.15622026 0.086451136 0.073577866
000200 5f 82 a7 3e 12 1d 9b 3d 75 6b b9 bd 3b 6c 68 3e
       0.32716653 0.07573904 -0.09053699 0.22697537
000210 70 f1 73 3e c2 9d 55 3e 4e 73 2c 3e e3 ab 12 bd
       0.2382257 0.20860961 0.1684086 -0.035808455
000220 e5 61 7b 3e f9 8a f1 3e 25 f5 29 be e6 73 82 be
       0.24549063 0.4717634 -0.16597421 -0.25479048
000230 49 5a 97 3e 5d 77 96 be 7a e6 18 be 6b fd ad be
       0.2956107 -0.29387942 -0.1493167 -0.33982405
000240 1e a3 04 be 99 9a d6 be 62 9f 9f bd 0d 6d 9b be
       -0.1295285 -0.41914824 -0.07794072 -0.30356637
000250 f1 c5 15 3e 78 4a 36 be 01 cf d5 bd 02 ad 87 3d
       0.1462629 -0.17801845 -0.104398735 0.066247955
000260 f9 4f 79 3e bf bc 39 3e eb cb aa 3e 72 da 5f bd
       0.24346913 0.18138407 0.33358702 -0.054651685
000270 03 7c ab 3e 37 1d 95 3e f7 65 85 be 7f 27 da 3e
       0.3349305 0.29123852 -0.26054356 0.42608258
000280 67 f0 21 be 84 61 08 3e 67 33 32 3e fd 47 ab 3e
       -0.15814362 0.1331845 0.17402421 0.3345336
000290 8a fb 85 3e dd 8e 3c 3e 6c 2b de bd 50 93 e9 bc
       0.26168472 0.18413873 -0.10848126 -0.028512627
0002a0 b7 0c b4 3e ab 59 80 3e 73 7c 27 3e ed 7d 45 3e
       0.3516595 0.2506841 0.16356067 0.19286318
0002b0 7b b5 89 3d b4 75 09 bc aa 4e 03 bf 73 f4 4b 3e
       0.06724068 -0.008389879 -0.51291907 0.19917469
0002c0 6f 02 49 3e 2b f1 9f be 58 1e 06 3f 8a 23 53 be
       0.19629835 -0.31238684 0.5239005 -0.20619026
0002d0 8b 25 ca 3d 16 00 a3 be bb 08 34 3e 84 8c ab 3e
       0.09870442 -0.31836003 0.17581455 0.33505642
0002e0 ad 9f 80 be 3d b8 4c be 46 f2 80 3e f7 e2 85 3e
       -0.25121823 -0.19992156 0.2518484 0.26149723
0002f0 73 38 86 be ca 9a 66 bd c3 32 a1 3e 73 2d e3 3e
       -0.26214942 -0.056299962 0.3148404 0.44370613
000300 01 9f 35 bd d3 7c 3b bd be 93 36 3e bc 87 fc bb
       -0.04434109 -0.04577334 0.17829797 -0.0077066105
000310 f4 26 b5 be 31 bf 01 bf 4b 10 be 3e 47 6b de 3e
       -0.3538128 -0.5068236 0.37121806 0.4344122
000320 50 52 88 3e e7 82 fd 3b f5 bf 63 3e e2 c5 c9 3e
       0.266253 0.007736552 0.22241195 0.39408785
000330 49 60 ea be aa 94 ed be 96 0c 9f 3d 41 28 46 3c
       -0.45776585 -0.46402484 0.077660725 0.012094558
000340 ec 2e a5 3e 7c 19 11 bf 59 c2 87 bd 93 7c b2 3e
       0.3226236 -0.5667951 -0.06628866 0.34860668
000350 ad 49 67 3e 20 a9 d1 3d b2 41 e8 bd 23 ec 80 3e
       0.22586699 0.10237336 -0.113406554 0.25180158
000360 79 18 97 3e 25 61 0f 3f fe 62 64 be e6 d8 dd 3e
       0.2951086 0.56007606 -0.22303388 0.43329543
000370 4b 33 61 be fe 9b 86 be 14 b9 36 3e ca 7f ea be
       -0.21992223 -0.26290888 0.17844039 -0.4580062
000380 bf ee b5 be 4d b8 c4 3e bb f9 39 be 72 95 0a 3e
       -0.3553371 0.3842186 -0.18161671 0.13533571
000390 2f 02 24 3e de d6 37 be fe 9f 5d be 2e 78 8f be
       0.16016458 -0.17953059 -0.21643063 -0.28021377
0003a0 fa d8 ea bb 1c d3 9d ba de 02 01 be 81 45 06 be
       -0.007166979 -0.0012041065 -0.1259875 -0.13112451
0003b0 6e 6d d4 bd 75 e9 c7 be da 52 a5 be 05 61 f2 3d
       -0.103724346 -0.390453 -0.32289773 0.11834911
0003c0 c5 95 cb 3e 5b 36 19 3f cf 41 2d 3d 04 dd 0f be
       0.39762703 0.59848565 0.042299088 -0.14049155
0003d0 6d 3c 56 3e c4 91 ae 3e 13 c1 91 be eb 94 9f be
       0.20921488 0.34095585 -0.28467616 -0.31168303
0003e0 89 58 a4 be 5f 4f a7 3c bc 39 40 3e 65 fe 22 be
       -0.32098797 0.02042359 0.18772024 -0.15917356
0003f0 88 e1 8e be 4a d1 8b be 7a 0a 9e be 67 ba 92 3e
       -0.27906442 -0.27308112 -0.30867368 0.2865784

conv1.bias f4 [32]
000000 a9 2e 2b 3e b3 27 b4 bc 7e 98 1c bd a6 4a 88 bc
       0.16717018 -0.021991586 -0.038231365 -0.016637158
000010 97 6d 66 3e 07 96 23 bd 51 d9 bc 3d 77 d6 14 3d
       0.22502743 -0.039938 0.09221137 0.036337342
000020 09 c8 b6 3d 59 9d a4 be ef dc a3 3d 1f f6 7c 3c
       0.089248724 -0.32151297 0.08001124 0.015439539
000030 27 a3 0e 3c 68 67 9e bd 59 24 73 3e ac 3d 7e be
       0.008705891 -0.07734567 0.23744334 -0.24828213
000040 79 98 78 be 68 24 3b be 9e a5 73 be 26 0e 22 be
       -0.24276914 -0.18275607 -0.23793647 -0.1582571
000050 ed d8 09 3d 68 ec d6 bd 5d b1 b6 bd 3c 9d 63 3e
       0.033654142 -0.1049431 -0.08920548 0.22227949
000060 b7 80 e6 bd 09 83 8a 3c ee 96 13 be 21 e2 20 be
       -0.11255019 0.016908186 -0.14413044 -0.15711261
000070 62 44 d1 bd 24 6e 7e be 51 1e a9 3d 35 58 a5 3d
       -0.10218121 -0.24846703 0.082577355 0.08073465

conv2.weight f4 [64, 32, 3, 3]
000000 2b 60 de 3d 77 7c bd 3d 70 2a 95 3d 97 8c 1d be
       0.10858186 0.092522554 0.07283485 -0.15385662
000010 01 f5 5a bd 1c 1f cc bd 6f 14 97 bd af 71 0e be
       -0.05345631 -0.09966871 -0.07376944 -0.13910554
000020 47 1b ff bd 98 e7 41 3d a5 e0 92 3d 75 b9 1f 3d
       -0.124563746 0.047340006 0.07171754 0.038995225
000030 e6 c2 dd bb 09 61 38 3c b3 78 45 bd e5 98 60 3c
       -0.0067676185 0.011253604 -0.04821081 0.013708328
000040 ed fc 12 be b5 e1 8e bd 14 ce 5c 3d 5b 9b ac bd
       -0.14354296 -0.06976644 0.05390747 -0.08428069
000050 05 db b4 bd 18 88 67 bd 46 b9 3b bd c0 73 a0 bd
       -0.08830837 -0.056526273 -0.045830987 -0.078345776
000060 7f b1 82 3d 76 08 16 3c d8 5a 41 bd f3 77 3f bd
       0.06381511 0.009157291 -0.047205776 -0.046745252
000070 4d 4c f2 bc 22 10 1c bd a1 bd 81 bd 62 1c 00 be
       -0.029577399 -0.038101323 -0.06334997 -0.12510827
000080 9c b0 2a be 22 00 15 3d 55 14 27 be 01 c2 63 be
       -0.16668934 0.03637708 -0.1631635 -0.22241975
000090 79 38 0d 3d 48 a5 9d 3d 88 17 db 3b 0c 9b 8e 3d
       0.034477685 0.076975405 0.0066861548 0.069631666
0000a0 92 92 e5 3b 8e a2 b5 bc 7b 66 38 bd 5e d0 97 bd
       0.007005998 -0.022172239 -0.045019608 -0.0741279
0000b0 77 f1 f8 bd 4c ee 9b 3d d5 9e e4 3d 10 55 d2 37
       -0.12155431 0.07613811 0.11163107 2.5073561e-05
0000c0 2c b8 b5 3d 88 9f a4 bc 35 d1 66 bc d5 0c 7e bd
       0.088730186 -0.020095602 -0.014087965 -0.062023956
0000d0 8c 51 ba bd b4 6a 72 bd af 2f b3 3d 1a 68 b9 3b
       -0.09097585 -0.05918379 0.08749329 0.005658162
0000e0 cb 49 8b 3d f3 ca b0 bd e0 33 1c be 4b 1a 84 bd
       0.06801184 -0.086324595 -0.15254164 -0.064503275
0000f0 37 e1 2b be 24 d2 03 bd 43 6b 2e be 6c 28 ce 3c
       -0.16785131 -0.032182828 -0.17033105 0.025165759
000100 89 e4 f5 3c 64 66 4e bd 1d 9c 0d bc a5 44 1e 3b
       0.0300162 -0.050390616 -0.008643177 0.0024149802
000110 f1 b7 c4 bd 58 99 45 3d 61 a9 fb bd 86 9d 66 bd
       -0.096053965 0.048241943 -0.12288166 -0.05630257
000120 eb c8 da bb 65 9b df 3b 9a ac 5e bc 94 72 74 3c
       -0.0066767833 0.0068239444 -0.013590956 0.014919896
000130 e1 e4 3d bb bf 61 9a bd 83 69 06 3d 76 da 0f be
       -0.0028975534 -0.07538175 0.032815468 -0.1404818
000140 ff 75 1f be 8c 35 c6 bd 7b 21 83 bc b2 df 27 bb
       -0.15572356 -0.09678182 -0.016007176 -0.002561551
000150 a9 0c 5a bd 92 5e 53 bd a8 67 19 3c ba 1d 3c bd
       -0.05323473 -0.05160386 0.0093630925 -0.045926787
000160 ba a7 5b bd 87 0b 04 bd 9b 68 58 3c 22 7d 95 3d
       -0.053626753 -0.032237556 0.013208534 0.07299258
000170 e4 d9 91 3d 1b a9 f0 3b e9 c1 28 bc 09 ad a2 3d
       0.071216375 0.0073443777 -0.010300138 0.0794316
000180 9a ad 6c bd 08 d9 a8 bd 57 a3 f4 bd 93 11 8e 3d
       -0.057782747 -0.082445204 -0.11945217 0.06936946
000190 9b b6 20 3d b1 7e 2c 3d 24 66 80 3d 39 22 a1 bd
       0.039236646 0.04211301 0.06269482 -0.078678556
0001a0 8e ed 3a bd b2 c7 cc bd 7e 0e 18 bd ce 57 21 3d
       -0.045636706 -0.09999026 -0.037123196 0.039390378
0001b0 a2 b1 c9 bd b5 05 33 bd df 84 34 bd e6 64 20 bd
       -0.09848334 -0.043706615 -0.04407203 -0.039158724
0001c0 0a 0d 04 bd 3d 65 70 bd ae 23 1c 3d 25 ba 2d bd
       -0.032238998 -0.0586903 0.038119964 -0.04241385
0001d0 51 82 cc 3c cd d2 18 3d 86 8b 87 bd f2 50 d9 bc
       0.024964483 0.03731041 -0.06618409 -0.026527856
0001e0 a5 a9 45 bc 6b dc c2 bd b2 40 46 bc ed e7 db bd
       -0.012064372 -0.09514698 -0.0121003855 -0.10737596
0001f0 f9 46 59 bd 1e 05 f8 bc 37 f4 68 3d 20 e9 83 3b
       -0.0530462 -0.030275878 0.056873526 0.0040255934
000200 0b e4 20 3d 97 5b 0f bd b3 4d 29 3b ec 01 bb 3d
       0.03927998 -0.034999456 0.0025833666 0.09131226
000210 f6 73 76 3b ab e8 20 bd e8 44 29 bd a0 cb 92 bc
       0.003760574 -0.03928439 -0.04132548 -0.017919362
000220 c7 43 50 bd 05 6e 58 bd af 55 7a bc f0 82 3c bd
       -0.050845888 -0.052839298 -0.015279218 -0.04602331
000230 1b df 07 3c 9d d7 4b bd 42 1e c5 bc 93 25 dc bd
       0.008292939 -0.04976617 -0.02406228 -0.10749354
000240 41 86 46 bd e0 32 50 bd 6d 16 be bd f6 4b 24 bd
       -0.04846788 -0.05082977 -0.09281621 -0.040111504
000250 24 31 a5 bd 48 27 a6 bd f9 40 c7 bc fc 4e d7 bc
       -0.080660135 -0.08112961 -0.024322974 -0.02628278
000260 9d bf ad 3c 0c c7 28 3d 79 0c ab 3d 3b f3 1f bd
       0.021209532 0.04120545 0.08351988 -0.039050322
000270 fd db 89 3d 0c d5 7b 3c ad bd 04 bd cf d2 31 3d
       0.067314126 0.015370619 -0.03240745 0.043413933
000280 c0 8f 7b bc 96 b0 3e 3d 02 3b 39 3a fb 05 ea 3d
       -0.015354097 0.046555124 0.0007065983 0.11426922
000290 82 ea c0 3d d0 6f d7 3d 0e ba cd 3d 68 ce 4d 3d
       0.09419729 0.105193734 0.10045253 0.050245672
0002a0 00 5c 9c bb 6d fd 46 3b da f1 b3 3d ed f8 ca 3c
       -0.0047717094 0.0030363456 0.08786364 0.0247769
0002b0 75 2a dc bd 4a 91 91 bd 2a 2a 84 bd 86 db 00 be
       -0.107502855 -0.0710779 -0.06453355 -0.12583742
0002c0 3f 1c 41 bd 6c 52 1f bd 0e db 9b 3c 56 79 a4 bd
       -0.04714608 -0.038896963 0.019025352 -0.080309555
0002d0 32 48 a2 3c 97 3e 96 bb 0b 9f 94 bd 5f c3 05 bd
       0.019809816 -0.004585098 -0.072568975 -0.032657024
0002e0 8e 18 f2 bd 8b 9a cf bd 1c 7c 56 3d 3b 17 d0 bd
       -0.1182109 -0.101368986 0.052364454 -0.10160681
0002f0 3c 76 35 be f1 2d 61 bd 55 a9 8c bd dd eb 92 3c
       -0.17720884 -0.054975454 -0.06868235 0.017934734
000300 d3 72 6c 3d d2 cd d0 bc 4b c6 87 bb c5 7e 30 3d
       0.057726692 -0.025488768 -0.0041435114 0.043089647
000310 c2 02 d6 3c 4d 1c 66 bc 57 1f a5 bc c1 6e 2c 3d
       0.026124362 -0.014044833 -0.020156546 0.04209781
000320 29 bd 0c bb 22 b7 7f 3d e9 51 d5 3c ba 01 84 3d
       -0.0021475053 0.06243051 0.026040034 0.06445642
000330 28 af a6 3c 72 c8 8c 3d 9c 24 25 bd af 6b b7 3b
       0.020347193 0.068741694 -0.040318117 0.0055975537
000340 e5 5f 53 3b a9 f4 97 3d 9e a2 7f 3d 4d 8c 1a bd
       0.0032253203 0.07419712 0.062410943 -0.037731458
000350 9c 7f e5 bc c3 e1 38 bd 86 27 fc bd da 87 29 bd
       -0.02801495 -0.04513718 -0.12312226 -0.041389324
000360 a6 a8 65 bc 68 88 95 3d d2 42 d0 3b da 85 80 3d
       -0.01401726 0.07301408 0.006355622 0.0627553
000370 16 93 e5 3c 7b ec 19 bb cb fc 41 bc 24 84 1b bd
       0.028024238 -0.00234869 -0.011840056 -0.037967816
000380 03 86 e1 bd 22 78 fc bd e7 46 96 bc 5b 68 62 bd
       -0.11011889 -0.12327601 -0.018344356 -0.055275302
000390 4f 77 70 bc fe 52 a6 bd a6 c1 9a 3c 62 e4 72 3d
       -0.014676883 -0.08121298 0.018891167 0.059299834
0003a0 8a 39 99 bc 8a 33 59 3b 4f d2 82 3c 5f 61 22 3c
       -0.018704195 0.0033142292 0.015969424 0.00991091
0003b0 21 a5 9e 3d 63 d1 2f be a3 ca 39 be 8e 16 4f be
       0.077463396 -0.17169718 -0.18143706 -0.20223448
0003c0 82 8e ce bd e4 aa a9 bd ba c8 7a bd 00 25 a2 bd
       -0.10085775 -0.08284548 -0.061226584 -0.079172134
0003d0 34 47 5a 3b 32 39 ad bd ad 31 e5 3b 9e 2e 70 3d
       0.00333066 -0.08458175 0.006994447 0.058638208
0003e0 c7 78 84 bc 74 70 52 3d a2 fc 03 3d 6e d1 db 3c
       -0.016170872 0.051376775 0.03222335 0.026833262
0003f0 2b 0b 4a 3c 49 9a 7b 3d 26 53 c6 3c f3 76 35 be
       0.012331764 0.061426435 0.02420957 -0.17721157

conv2.bias f4 [64]
000000 46 be 2d bc fe 04 15 bd 94 25 b1 bd cd a6 bb bb
       -0.010604447 -0.036381714 -0.086497456 -0.0057266713
000010 46 98 17 bc 00 00 29 bd ab 60 58 3c cd ac ee bc
       -0.009252613 -0.041259766 0.013206641 -0.029135132
000020 f4 29 76 bd 5e cf ca bc b8 15 23 3a 70 c9 3d bd
       -0.060098603 -0.024757084 0.0006221193 -0.046334684
000030 e0 38 67 bd 6a d9 e6 3c dd 73 4d 3c a7 fe 77 3d
       -0.056450725 0.028179843 0.012539831 0.06054559
000040 8e 1c 8d 3c aa 03 2f bd b5 4f d0 3b 7e 94 05 bd
       0.01722553 -0.042728104 0.006357158 -0.032612316
000050 be 7c ac 3c 10 22 af bd 3c cd 8a bc e1 7d 57 bd
       0.021055575 -0.08551419 -0.016943567 -0.05261028
000060 58 78 65 3d 08 63 aa 3b c7 07 07 3d 4f 6e bf 3b
       0.056022972 0.0051997937 0.0329664 0.005842007
000070 a6 c5 26 bd 0d 55 63 bc be 5f 2b 3c 9c 73 3b 3c
       -0.040715836 -0.013875258 0.010459838 0.011441138
000080 7b 82 7a 39 5a 42 40 3d bd 17 98 3a b1 08 82 bc
       0.00023890466 0.046938278 0.0011603754 -0.015873285
000090 9e 64 70 3d 66 43 4e 3c dd 96 02 bd ab e0 78 bc
       0.058689706 0.012589311 -0.031882156 -0.015190284
0000a0 08 44 9e bc ff 13 69 3d 2c e8 68 bd 6f 26 b3 bc
       -0.01931955 0.056903835 -0.05686204 -0.021868913
0000b0 a6 0a 8e bd 29 1f a9 bb b2 57 0c 3d 78 19 18 3c
       -0.06935625 -0.0051611853 0.03426332 0.009283416
0000c0 c6 f7 68 3d 9d 44 6d bd 7d ce 95 3c e6 42 00 bd
       0.05687692 -0.057926763 0.018286938 -0.0313138
0000d0 23 f8 34 3d de 4f 3c 3c 9a 90 bd 3c 1f 34 f9 3c
       0.044181954 0.011493651 0.02314024 0.030420361
0000e0 e0 5f 82 bc 5d 62 06 bd ae 08 d9 3c 8c 1c a1 bd
       -0.015914857 -0.03280865 0.026493397 -0.07866773
0000f0 af bf 87 bc c2 4b 54 bd 4a 0b 4b 3d f7 f7 22 bd
       -0.016570894 -0.05183006 0.049571313 -0.03978726

fc1.weight f4 [128, 1600]
000000 c0 6d 54 bc d0 f5 e3 3b f3 b3 a4 bc 8e c9 db bb
       -0.01296562 0.0069567934 -0.020105338 -0.006707377
000010 b9 00 8d bc 50 04 90 bb 56 21 67 bb 02 ff 80 bc
       -0.017212259 -0.0043950453 -0.0035267673 -0.015746597
000020 8e ae 77 3c fc df 63 3c 46 85 c1 bc f9 39 c6 bc
       0.015117301 0.0139083825 -0.02362312 -0.024197565
000030 17 d1 7f bc cc 59 a9 bc 28 ad d2 bc a7 44 fe 3b
       -0.015613816 -0.020672701 -0.025717333 0.007759649
000040 8a cb 25 3a 3d 07 3e bc 4c 24 32 bc 97 57 25 3b
       0.000632458 -0.011598405 -0.010872912 0.002522921
000050 6b c9 04 bc b5 53 91 3c d3 f4 8d bc 7e b4 98 3c
       -0.008104662 0.01774011 -0.017328655 0.018640753
000060 5e 6b 57 3c 4c 41 af bc 0d 11 65 3c 36 eb e4 bc
       0.013148157 -0.02139344 0.013981116 -0.027944189
000070 55 4c f6 bc 0e dd c6 bc 11 d3 97 3c 6f bd 93 3c
       -0.030065695 -0.024275329 0.018533261 0.018034665
000080 94 ff 7b 3c 9c 5a 9f bb d6 87 af bc 6e 23 59 bc
       0.015380759 -0.0048630964 -0.021427076 -0.013253076
000090 42 0b 2a 3b 7b ae 1e 3b b4 2c f0 bc 78 bc bc bc
       0.0025946652 0.0024212885 -0.029318191 -0.023039088
0000a0 14 db 44 bc c4 1b 21 3c 5e da 12 3b da 0b ec bc
       -0.012015123 0.00983328 0.002240799 -0.028814245
0000b0 38 e9 59 bc 93 68 a5 bc 7f 44 9c bb 85 15 3b 39
       -0.013300233 -0.020191466 -0.0047689076 0.00017841726
0000c0 9c 4b 99 3c 1f 18 49 bc 85 8b d3 ba c5 fe e4 3a
       0.018712811 -0.012273817 -0.0016139603 0.0017470947
0000d0 11 01 bb bc a1 1c 1e bb 06 53 91 bc 82 ea 40 bc
       -0.022827657 -0.002412595 -0.017739784 -0.011774661
0000e0 6d 51 e0 bc 53 08 bc 3b 1d 14 ab bb 35 c2 d0 bc
       -0.027382577 0.005738297 -0.0052209035 -0.02548323
0000f0 0c 6e 23 3c 52 a1 f5 bc 4e 92 2c bc b0 76 8b bb
       0.009974968 -0.02998415 -0.010532929 -0.004256092
000100 c3 11 57 3b b2 e4 dc bc b0 fc 8c bb 26 5a cf 3b
       0.0032816983 -0.02696452 -0.0043025836 0.006327885
000110 de ba a3 bc 94 59 8d bc ea 93 69 3b 35 d9 e6 bc
       -0.019986566 -0.017254628 0.0035641142 -0.028179744
000120 0a cd 60 3c 13 04 b1 3b 18 32 f3 bb 09 33 28 3c
       0.01372076 0.005402097 -0.007421743 0.010266074
000130 6a a0 2f 3c a7 f7 9e bc 95 07 00 bc 1f a0 d3 bc
       0.010719398 -0.0194052 -0.007814308 -0.025833188
000140 ef 5d c8 3b 1a 9c 74 bc 5f f6 9f bc 3a 2a bf bc
       0.0061147134 -0.014929796 -0.019526659 -0.023335565
000150 78 f3 7c 3c 38 e0 8b 3c 1e 0f 81 bc bf de 5b 3c
       0.015438907 0.01707469 -0.015754279 0.013419806
000160 b8 84 05 3c 59 de a4 bc a3 78 27 ba af fd 51 bb
       0.008149318 -0.020125555 -0.00063885207 -0.0032042076
000170 87 22 b5 bc 7e 6b d4 bc 7c 38 2c bb 9e f1 06 bc
       -0.02211119 -0.025930163 -0.0026278784 -0.008236317
000180 92 cb 8f 3c 7f b4 d9 bc 27 95 9a 3c c0 24 bb bc
       0.017553125 -0.026575325 0.01886995 -0.022844672
000190 70 40 28 bc 97 4a 83 3b cb 52 ab bc 8b 2c 5a 3c
       -0.010269269 0.0040066945 -0.020913502 0.013316284
0001a0 22 4e 45 39 3a 7c a9 bc a0 21 fb 3a 5b 25 62 3c
       0.00018816491 -0.020689119 0.0019159801 0.013802852
0001b0 54 15 c6 bc 6b 8a 73 3c a7 f5 40 bc f3 4d da bb
       -0.024180092 0.014864544 -0.011777318 -0.0066621243
0001c0 a0 c2 7a bc 57 cc 2e bc 7e 71 c5 bb b5 6b 83 bc
       -0.015305191 -0.010668836 -0.006025492 -0.01604257
0001d0 3e 88 ef bc 9b 12 33 bc 60 8d 27 3c d5 ac ac bb
       -0.02923977 -0.010929729 0.0102265775 -0.0052696266
0001e0 9a 4c 37 bc d1 ab 83 3c a8 37 e2 bc 00 71 88 bc
       -0.011187697 0.01607314 -0.02761443 -0.016655445
0001f0 b4 41 8e 3c 6c 8a a2 3b 26 91 95 3c e3 25 05 bb
       0.017365314 0.004960349 0.018257689 -0.0020316772
000200 6b ca b6 3c 4e 98 e4 bb 88 84 bd 3b d6 95 36 3c
       0.022313317 -0.006976164 0.005783621 0.011144122
000210 31 85 94 bc f7 80 28 3c 1b 67 84 3c 5b e0 b6 3c
       -0.018129917 0.010284654 0.016162446 0.022323778
000220 ec 12 f0 bc 04 70 cd 3b a4 17 a4 ba aa 21 78 bc
       -0.029305898 0.006269457 -0.0012519252 -0.015144745
000230 00 85 65 bc 61 8c 7e 3c 62 f8 e3 bc d3 d5 02 ba
       -0.01400876 0.015536399 -0.0278284 -0.0004990969
000240 76 cc 94 3c b0 91 f0 ba a2 88 35 3c 10 e4 f2 3b
       0.0181639 -0.0018353965 0.011079939 0.007412441
000250 8c 2d 44 3c 73 1b 94 bb 40 26 ca bc 56 b0 74 bc
       0.01197375 -0.0045198738 -0.024676442 -0.01493462
000260 aa 3c 42 3c 2f ec 86 3b ce 87 d0 bc 10 7e b3 3b
       0.011855284 0.0041175107 -0.025455382 0.0054776743
000270 c4 c6 1f bc 73 6c 51 3c 44 9d ae bc 5e e3 94 bc
       -0.009751979 0.012782204 -0.021315224 -0.018174823
000280 a2 49 f5 bc 69 2f 5c bc 4e 8e dc bc 74 ef bf 3b
       -0.029942337 -0.013439038 -0.026923325 0.0058574025
000290 b3 de d9 bc 50 d3 d3 bc 74 eb ef bc 41 9a e0 bc
       -0.02659545 -0.025857598 -0.029287077 -0.027417304
0002a0 4b 7f a1 3b 69 4a 04 bb 67 87 ea ba d1 54 1b ba
       0.0049285046 -0.0020185953 -0.0017893136 -0.00059254194
0002b0 66 05 1b bc 37 19 7a ba ab d7 f2 bc da 6d 44 3c
       -0.009461736 -0.00095405005 -0.029643854 0.011989081
0002c0 a9 3d bb bc 07 3c b0 bc fe 38 d5 bc da d3 43 bc
       -0.02285655 -0.021512998 -0.026028153 -0.011952365
0002d0 f0 f5 dc 3b e5 a5 98 3b 61 3b 26 bc a4 36 6c bc
       0.006743185 0.004658448 -0.010145993 -0.014417324
0002e0 b9 be f0 ba 3a 8f 01 3c e2 ba 16 3c e2 28 70 bb
       -0.0018367387 0.007907683 0.00919983 -0.0036645462
0002f0 f4 3d 02 bc 30 07 4b 3c 49 aa a0 bc 47 f3 2f 3c
       -0.007949341 0.01239185 -0.019612448 0.010739154
000300 ad c6 85 bb a0 2c 09 3c f8 76 d4 bb 71 a3 2b 3c
       -0.004082522 0.008372456 -0.0064839087 0.010475979
000310 98 5f ba bc f3 05 c6 3c ea c5 e9 3c e1 08 e2 bb
       -0.02275066 0.024172759 0.028536756 -0.006898031
000320 ff de df bc 82 f3 79 3c 4a 6c ee 3b 89 7f bf bc
       -0.027328013 0.015255811 0.0072760927 -0.023376243
000330 fa b1 46 bc 1a 8e 93 bc 39 5f f4 bc 4e 5c 40 3a
       -0.012127394 -0.018012095 -0.029830562 0.0007337973
000340 40 16 52 3a ba af 88 3c 70 9c 03 3b a4 e6 7f bc
       0.000801418 0.016685355 0.0020082258 -0.015618954
000350 7a 05 48 3b b2 74 07 3c 3f 9b ed bc f5 e4 7e 3c
       0.0030520842 0.008267568 -0.029004691 0.015557517
000360 a9 5a e8 bb 1f fb 61 3c af 69 6c bb 44 a8 fd 3b
       -0.0070908857 0.013792782 -0.0036073735 0.007741006
000370 de 49 13 3c e4 3b 94 bb 4a ad 18 bc 14 47 b2 3a
       0.008989779 -0.004523741 -0.009318659 0.0013601505
000380 9e e7 b5 bc 91 25 d2 b9 17 6c d3 3b 37 43 ea bc
       -0.02220517 -0.0004008231 0.0064520943 -0.028596504
000390 e5 cb f3 bc 6d 0f a6 ba 0c a8 ec bb fd e3 ec 3b
       -0.02976031 -0.0012669392 -0.007222181 0.0072293268
0003a0 bd bb fa bc a7 7c 91 bc 8e 73 02 bc 8d 05 6e bc
       -0.030607099 -0.017759634 -0.007962121 -0.014527691
0003b0 3f 76 e8 3b 4d 51 3e bb bd 59 dc b9 cb 41 be bc
       0.007094174 -0.0029040158 -0.0004202853 -0.023224732
0003c0 8e 99 a5 bc 1a 0f bb bc d7 4f b4 bc 44 c3 d8 bc
       -0.020214822 -0.02283435 -0.022010727 -0.026460297
0003d0 60 a9 0d 3c 36 51 dc bc 49 2e fc 3b f8 b7 39 3c
       0.008646339 -0.026894193 0.0076959473 0.0113353655
0003e0 9f 56 cb bb 3b 3b 86 bc 72 1c b8 bc 8d 3c 2a bc
       -0.0062053944 -0.016385665 -0.022474501 -0.010390413
0003f0 da 46 8b 3c 0c 25 95 3c 7f fb 62 3c 88 d8 b1 3a
       0.017001558 0.018206142 0.013853907 0.001356856

fc1.bias f4 [128]
000000 a9 b4 79 3c 4e b7 19 bc 19 cf aa 3b fe 80 85 bc
       0.015240827 -0.009382082 0.0052126762 -0.01629686
000010 75 08 27 3d f0 71 7e bc d0 93 72 3c 14 ab 55 3c
       0.04077955 -0.0155300945 0.014805749 0.0130412765
000020 c1 48 45 3d 5a 9c 8f 3c 41 35 98 bc df 6d 06 3d
       0.048165087 0.017530609 -0.018580081 0.032819625
000030 6c f9 5f bb f5 eb f3 3a 25 f7 43 bc e5 66 f3 3b
       -0.0034175767 0.0018609749 -0.011960779 0.0074280375
000040 e8 21 c1 3c ce dc 55 bd 0a 43 c1 bb 55 e3 60 3d
       0.023575738 -0.05221253 -0.0058978843 0.0549043
000050 32 70 e9 3b 30 0c 82 3d a7 b0 10 3b ea fb 40 3d
       0.0071239704 0.06349981 0.002207795 0.047115244
000060 30 5f dd bb c2 05 a8 bb 27 81 24 bd 63 4a 1e 3c
       -0.006755732 -0.0051276395 -0.04016223 0.00966129
000070 9b 3a b3 3b 22 c7 05 3d 50 02 55 3b fe 5f 13 3c
       0.005469633 0.03266061 0.00325026 0.008995054
000080 93 ab d3 bc e5 54 4e 3d 8f 34 1b 3d a9 84 39 bb
       -0.025838649 0.05037393 0.03789192 -0.0028307831
000090 c6 58 c9 3c e0 ff c8 3c 43 ed 4b 3d 6e 7a 9a 3c
       0.024578463 0.024536073 0.049786817 0.018857207
0000a0 ae 6d b7 bc f4 4b 92 bd e2 ed 8d 3c 97 49 ae bc
       -0.022391167 -0.07143393 0.017325345 -0.021275325
0000b0 29 db 2f bd d6 1d a3 3c 87 71 24 3b db 5a 92 bc
       -0.042933617 0.019911688 0.0025092082 -0.017865589
0000c0 8f 43 74 3c 7b 2c 69 3b 37 27 1f bd 96 d6 de 3c
       0.014908685 0.003557949 -0.038855758 0.027201932
0000d0 3e 82 a7 bc e2 a0 11 bc 7b 92 f9 3c ee 66 36 bb
       -0.020447847 -0.008888455 0.030465355 -0.0027832347
0000e0 6c 52 93 b9 a0 f7 1f 3c c8 6b 14 bd 96 36 55 bc
       -0.00028099434 0.009763628 -0.0362356 -0.013013503
0000f0 04 54 21 3b f3 58 dc 3b 21 a6 87 3c ba 8a 18 3b
       0.0024616728 0.0067244708 0.016558709 0.0023276047
000100 78 00 a2 3c b2 aa cf ba b2 b7 f6 bc 51 34 7c 3d
       0.019775614 -0.0015843718 -0.03011689 0.06157333
000110 32 c6 0e bb 7e e5 01 bc 6a bd db bc 21 a9 d6 bc
       -0.0021785614 -0.00792825 -0.026823718 -0.026203694
000120 c6 5f d1 3c 0e f1 83 bc 90 f0 80 3c 68 89 f5 3b
       0.025558364 -0.016106155 0.01573971 0.0074931867
000130 a0 32 6c 3c 23 07 5c 3c 51 b1 f0 3c 8c a8 e7 bb
       0.014416367 0.013429436 0.029381426 -0.007069653
000140 34 19 e4 bb 3c 80 0e bc 2b 2b 2b bd 62 03 81 bc
       -0.0069610123 -0.008697566 -0.041789215 -0.015748683
000150 45 ef f7 bb dd b3 43 bd 65 ce 5f bc 6f 46 cd 3c
       -0.007566365 -0.047778953 -0.013660048 0.025058
000160 b5 98 1b bc d2 ce 90 bb 02 6f 33 3d 33 45 7b bc
       -0.009496857 -0.004419186 0.043807037 -0.015336323
000170 69 46 c7 bc ce d3 a8 bc 06 f1 a0 bc a7 4e 4f 3d
       -0.024325566 -0.020608809 -0.019646179 0.050612118
000180 bd 97 66 39 48 c4 b8 bc 9d 98 32 3d 2b 05 c2 3c
       0.00021991036 -0.022554532 0.043602575 0.023684105
000190 a9 83 85 bc bb 0c 98 3c 06 f6 70 3c 06 66 1f bc
       -0.016298132 0.018560758 0.014707094 -0.009728914
0001a0 b7 21 05 bd 6b 84 93 bc 1a 59 01 bd cb 8a 4c 3c
       -0.032502856 -0.018007478 -0.031579114 0.012484263
0001b0 5c 76 a3 bc cb 93 8a 3c c4 19 42 3d 9a b0 ae bd
       -0.0199539 0.016916176 0.047387853 -0.08529778
0001c0 15 25 87 bb f8 fc 88 3c 79 f9 31 3c 37 38 58 bd
       -0.0041242936 0.016722187 0.010862702 -0.052787986
0001d0 7f d9 b9 bb 07 75 3f bb b8 00 c6 3a b0 fd 15 3c
       -0.0056716795 -0.002921404 0.0015106415 0.009154722
0001e0 dc 6f d7 bc 83 33 97 b9 12 44 1b 3c c5 94 5b 3d
       -0.026298456 -0.00028839344 0.009476678 0.053608675
0001f0 54 b2 b0 b8 13 9a c3 bb 45 89 68 bc ca f2 76 ba
       -8.42555e-05 -0.005969295 -0.014192884 -0.00094203337

fc2.weight f4 [10, 128]
000000 d8 b9 9a bd b4 78 9e bd 11 13 46 bd 3d 15 3c be
       -0.07554978 -0.07737866 -0.048358027 -0.18367477
000010 ec bb 59 3d db cc 21 3d 4a 36 d0 3d 5b 4a 4a 3d
       0.053157732 0.039502006 0.10166605 0.049387317
000020 8b 03 80 3d 12 15 87 bc 76 77 34 3d ff 10 c6 3d
       0.06250676 -0.01648954 0.04405924 0.096712105
000030 c8 58 f9 bd 30 5d 5f bd bf 5a 4d 3d 8a a7 ac 3c
       -0.12175137 -0.05453223 0.05013537 0.021075983
000040 7e d9 45 3e e6 bf f9 bd 6d 63 1c 3c de c1 00 3e
       0.19321248 -0.12194805 0.009545189 0.12573954
000050 fb 01 8c 3d d5 f5 87 bd 2c c2 9b bd 33 38 86 bd
       0.06836315 -0.066386856 -0.07605395 -0.06553688
000060 9e bb 8c 3b 22 67 98 bd 35 34 59 3d 92 64 d0 3d
       0.0042948266 -0.07441546 0.053028304 0.10175432
000070 69 53 8d 3d 93 63 90 bd bb 32 96 3d 5c dd 65 3d
       0.06900675 -0.07050242 0.07333895 0.056119308
000080 87 c3 5f bd 24 92 fc 3d 17 8f 0d bd 1e fe 99 3c
       -0.05462983 0.123325616 -0.03456029 0.01879793
000090 f2 b6 4a bd fe c5 fb 3c 2e 46 44 bd 86 13 db 3c
       -0.049490876 0.030734058 -0.04791849 0.026742708
0000a0 83 30 47 3c 7b 3c ab 3c 60 69 98 bd 50 02 6f 3c
       0.012157562 0.020902863 -0.07441974 0.014587954
0000b0 eb 5f b3 3d 68 ad 37 bd 7f 22 1f bd 80 37 59 bd
       0.08758529 -0.044843107 -0.038851257 -0.053031445
0000c0 c3 83 f6 bd c8 67 75 bd f1 62 0d be 72 ae 9e bd
       -0.1203685 -0.059913427 -0.13807274 -0.077481166
0000d0 52 11 76 bc aa bb ed 3c 4d 9c 58 be da cc 9d bd
       -0.015018778 0.02902015 -0.21153374 -0.07705088
0000e0 c6 bf f1 bd 3d f6 fb 3c 7b 5c a1 bd fb 24 fb bb
       -0.11804156 0.030757064 -0.078789674 -0.0076643205
0000f0 e7 51 80 3d 61 4d 90 bd 6a 06 5b bd 9b 20 ba bd
       0.06265622 -0.07046009 -0.053472914 -0.0908825
000100 be f2 d1 bd 2b 0e 6d 3d 4b b1 5e bd b6 0a eb 3d
       -0.102513775 0.05787484 -0.0543683 0.11476652
000110 e6 92 9a 3d 10 e5 96 bd f3 c6 33 bd bd e8 66 3d
       0.0754755 -0.07367909 -0.043890905 0.0563743
000120 37 b9 15 bd 7e 45 08 3d 07 9d a0 bd 83 0b 69 bd
       -0.036553588 0.033269398 -0.078424506 -0.056895744
000130 6d bf 8f 3d 7f a8 a2 bc 69 1c 22 be f0 78 89 bc
       0.070189334 -0.019855736 -0.1583115 -0.0167813
000140 b6 6b 8f 3d 39 27 85 bc 73 e1 30 be f4 66 a2 3d
       0.07002966 -0.016254054 -0.17273502 0.07929793
000150 74 dd f6 bb 99 1e 7a bd d1 55 3f bc 7f f8 ec bd
       -0.0075337235 -0.061064336 -0.011678175 -0.11570834
000160 93 d4 17 3d ee 28 e3 3c d3 53 07 be e2 50 88 3d
       0.03706796 0.027729478 -0.1321557 0.06656052
000170 cd 4e 8e bd b7 53 9a 3d e1 e4 1c 3c 2d 90 56 be
       -0.06948624 0.075354986 0.009576053 -0.20953436
000180 77 57 52 3b 4c b2 15 bd 9c e7 50 3c 51 00 a1 3d
       0.003209559 -0.03654699 0.0127505325 0.078613885
000190 79 e3 b1 bc 1b 68 b5 3c 80 9f 1d 3d 2c 9e 3e bd
       -0.021714913 0.022144368 0.03848219 -0.046537563
0001a0 14 8d a3 bc 3c 9f 91 3d d4 bb fe 39 f2 43 79 3c
       -0.019964732 0.0711045 0.00048586598 0.015213953
0001b0 67 3c 8a bb 72 fe cc bd c2 82 62 bd d0 f3 a9 3b
       -0.0042186263 -0.10009469 -0.05530048 0.0051865354
0001c0 56 54 42 bc 5b 56 3d bc 4a 2a a1 bc 41 36 bb bd
       -0.011860928 -0.011556233 -0.019673485 -0.091412075
0001d0 41 ab 1a bd c3 fe 84 3a 6f e4 50 be 93 36 3a 3d
       -0.037760977 0.0010146726 -0.2039964 0.045462202
0001e0 db 6c 46 be 3e c8 98 3d 91 2f cf 3d ca 15 e6 3d
       -0.19377463 0.07460068 0.101164944 0.11234625
0001f0 51 26 d8 bc 1c 75 62 3d 43 8a 9d bd 33 35 53 bd
       -0.026385458 0.055287465 -0.07692387 -0.051564407
000200 12 69 a3 3b 04 d8 28 3d a3 81 34 3d 51 6e b7 3d
       0.0049868906 0.041221634 0.044068944 0.08956588
000210 90 5c 32 3e 45 44 75 bd 42 e6 33 3d 44 3c 3f 3d
       0.17418122 -0.05987956 0.043920763 0.046688333
000220 81 3e 91 3d 6c cb 3b 3d 70 2a 22 be 8f 12 b8 3d
       0.07092 0.045848295 -0.15836501 0.08987915
000230 b3 f2 ca 3c cb 3e 88 3d 24 62 90 bd 0f 3f 22 bc
       0.024773931 0.06652602 -0.07049969 -0.00990273
000240 09 eb 3a bd 7c 6f e1 3d 20 7e 56 bc 4e bc c6 3d
       -0.045634303 0.11007592 -0.013091594 0.09703885
000250 05 60 04 3d 2e 94 15 3e 59 be 83 bd 9a da 8f 3d
       0.032318134 0.14607307 -0.0643279 0.07024117
000260 b2 48 1d bd f4 5a 22 3d 6e dc 16 be 50 24 e0 bd
       -0.038399406 0.03963752 -0.14732525 -0.10944426
000270 23 23 c7 3b 6f 97 49 be 4c 52 5b 3d 7c 6d f2 bd
       0.0060771867 -0.19686674 0.05354528 -0.11837289
000280 87 cd 00 be ea 03 67 bd 7e c4 57 bd 4c e2 50 bd
       -0.12578402 -0.056400217 -0.052677624 -0.050997064
000290 ba b1 27 3e 55 59 0e bd ba 62 5f 3d 0f ea a7 ba
       0.16376391 -0.034753162 0.054537512 -0.0012810844
0002a0 04 1a 66 bd fe bb ab 3d 32 b4 43 be 4a 6e 1a be
       -0.056177154 0.08385466 -0.19111708 -0.15081134
0002b0 d7 d5 b8 38 fd 6d 1c 3e 48 a1 b5 bd 80 f7 1e bd
       8.8136345e-05 0.15276332 -0.088686526 -0.038810253
0002c0 ec 84 af bc 34 34 06 bd 99 90 83 3c aa 03 74 bc
       -0.021425687 -0.03276463 0.01606016 -0.014893452
0002d0 33 6f 8a 3d 23 32 a7 bc 86 79 19 3c f3 40 84 3d
       0.06759491 -0.02040965 0.009367352 0.064577006
0002e0 fb 7f 61 3d 7a c2 46 bc 90 e8 55 bd ed 94 4e 3d
       0.055053692 -0.012131328 -0.052223742 0.050434995
0002f0 cd be 42 be f3 c4 e5 bb e7 c3 9d 3c b1 72 ed 3c
       -0.19018097 -0.0070120036 0.019258453 0.028985353
000300 57 d8 d3 3d 3b 62 a5 bc b8 06 02 3c ab 4c b3 3d
       0.10343998 -0.020188442 0.007936172 0.08754858
000310 43 f1 90 bd ab 05 19 3c cf a9 89 3d a1 1b c4 3c
       -0.07077267 0.00933973 0.067218415 0.023938956
000320 ba 58 68 3d 50 b8 92 3d 30 84 48 bc b0 da e6 3c
       0.05672524 0.07164061 -0.012238547 0.02818045
000330 4c 77 45 39 c1 d8 61 3d 60 64 8b 3d 17 48 c4 bc
       0.00018831826 0.055138353 0.068062544 -0.023960156
000340 b7 ce 07 3d b6 2a bb 3c 82 d6 15 be 24 ba be bc
       0.033156123 0.022847515 -0.1463261 -0.023282118
000350 a7 4a f7 bb a8 7d 32 be 85 99 3f bc f1 0c 00 bd
       -0.007546741 -0.17430747 -0.011694317 -0.031262342
000360 76 89 94 bd 99 7d c2 bd 6a c4 a9 3d 47 33 a1 3d
       -0.07252781 -0.09496612 0.08289416 0.078711085
000370 3e cd a4 bd 4c 08 17 bd ac 61 31 bd 9d 61 73 3d
       -0.08046959 -0.036873147 -0.043306038 0.059419263
000380 d6 e0 35 3d 97 10 a7 3d 77 a8 a3 3d 03 43 57 bd
       0.044403873 0.08157461 0.079911165 -0.05255414
000390 42 b8 e8 bc 8d 75 d5 3c 58 e3 a1 bd 01 5c bf bc
       -0.028408173 0.02605703 -0.079046905 -0.0233593
0003a0 3b d5 5e bd ff 19 19 3d c8 03 1b be 3f f8 2a 3d
       -0.05440257 0.037378307 -0.15138161 0.041740652
0003b0 a3 82 f6 3c 3d b6 c4 3d b3 e3 04 3e 59 d0 bc bc
       0.03009159 0.09605072 0.12977485 -0.023048567
0003c0 31 24 5c bd 70 23 1b bd 8f c6 0f be 1a 35 78 3d
       -0.053745452 -0.037875593 -0.14040588 0.060597517
0003d0 49 70 b1 bb 31 11 04 bd 54 11 91 bd e6 12 87 bd
       -0.0054149968 -0.032242958 -0.07083383 -0.065954015
0003e0 f6 92 87 bd e7 e6 f7 3d ad ef 7e 3c d4 04 3b bd
       -0.066198274 0.12104588 0.015560073 -0.0456589
0003f0 d8 96 9b bc 1e 07 3f be 24 d5 1c bd 88 79 57 3d
       -0.018992826 -0.18655059 -0.038289204 0.052606136

fc2.bias f4 [10]
000000 9a ad 41 3d cb fa 82 3d 1e 2e 01 3d b3 09 6e 3c
       0.0472847 0.06395491 0.03153812 0.01452868
000010 fd f2 5c 3d 53 36 75 3d c9 c8 86 bd 58 a4 fe bc
       0.05394267 0.05986626 -0.065812655 -0.031084225
000020 fa 78 93 3d b1 99 f4 3c
       0.07200809 0.029858442
