model_weights.pth (torch, 902859 bytes, 8 tensors)

conv1.weight f4 [32, 1, 3, 3]
000000 84 ed 15 be 9c f2 01 bf 4d ae c0 bc 30 20 eb 3e
       -0.14641386 -0.5076082 -0.023520613 0.45922995
000010 d4 90 4d be 19 48 18 bf 52 a0 fe 3e 0d 34 f7 3e
       -0.20074779 -0.5948501 0.4973169 0.482819
000020 bc 2f 60 3e 45 62 f9 3e 7e ee cd 3e 3d 88 9e 3e
       0.21893209 0.48707786 0.40221018 0.30963317
000030 04 72 f7 bd 0c fa 27 3e f9 39 3f be 50 19 dd be
       -0.12082294 0.16403979 -0.18674459 -0.43183374
000040 0e bf 0c bf a4 df 90 be ab 37 cc bd 53 47 9c be
       -0.54979026 -0.28295624 -0.09971555 -0.30523166
000050 73 c5 2c be c8 3b 23 3e 54 84 9a 3e cc 7e 18 3e
       -0.16872196 0.15940773 0.30179083 0.14892119
000060 d0 b8 47 3e 56 bf 15 bd b6 92 55 3e 3f cc f3 3c
       0.19504094 -0.036559425 0.20856747 0.029760478
000070 84 b1 99 3e 65 99 06 3e d0 5d 5e 3e 8d cc 98 3e
       0.30018246 0.13144453 0.21715474 0.2984356
000080 ea b5 f4 be 07 33 96 3e 64 1f a4 be 86 62 b8 be
       -0.4779504 0.29335806 -0.320552 -0.36012667
000090 ee 58 24 be e6 ce bc be d6 02 b0 be f8 4f ce be
       -0.16049549 -0.368766 -0.34377164 -0.40295386
0000a0 79 f9 a1 bd 7c b3 5c bb 12 3b af 3e ee 6d c9 3e
       -0.07908911 -0.0033676317 0.34224755 0.39341682
0000b0 75 db bb 3e 09 d5 4e 3e d9 26 b8 3e ae 54 94 be
       0.3669087 0.20198454 0.35967138 -0.28970855
0000c0 e4 66 c0 be 69 1e 2d 3e 6e 6e f8 3d 45 d7 07 be
       -0.375785 0.16906132 0.12130438 -0.13265713
0000d0 28 2f c0 3d f6 fc 74 3d b9 0d b8 3c 8e f0 e1 bd
       0.09383994 0.059811555 0.022467481 -0.1103221
0000e0 d5 f1 e6 bd 3f 76 81 3d ca a8 27 3e 20 18 03 3d
       -0.112765945 0.06321382 0.16372982 0.03200543
0000f0 f2 6c 21 bd 02 93 ca bc ca 27 27 be 84 b5 74 be
       -0.03941054 -0.024728302 -0.16323772 -0.23897368
000100 f6 ca 8a be f2 2c 5e 3e bc 6e 09 bf 6f 66 5c be
       -0.27107972 0.21696833 -0.5368459 -0.2152345
000110 ab f3 eb 3e db 72 25 3c 46 a8 5c 3e 5a f0 bf 3e
       0.4608434 0.010098184 0.21548566 0.3748806
000120 5f ad 73 3e c0 d0 d3 3e 19 e9 a5 be 49 50 50 3e
       0.23796605 0.413702 -0.32404402 0.20343126
000130 6f 98 66 3d de a1 98 bd f5 15 78 3e d7 b8 ae 3e
       0.056297716 -0.07452749 0.24227126 0.34125397
000140 26 f7 93 3e c7 96 07 ba 81 d5 a6 be c3 16 d2 3e
       0.28899497 -0.0005172309 -0.32584766 0.4103299
000150 34 20 d2 bd a5 86 65 be f1 b5 86 3e 81 6f dd 3e
       -0.102600485 -0.22414644 0.26310685 0.43249133
000160 02 1a bb be 6a 69 03 be 20 0a 09 3d 56 85 90 3e
       -0.3654328 -0.12833181 0.03345692 0.28226727
000170 b0 44 92 bd 73 d2 1d be 97 1f b8 be 23 76 99 be
       -0.07142007 -0.15412311 -0.359616 -0.29972944
000180 7f 0a b6 bc d3 32 a4 be f3 6f cd 3d ac 86 35 be
       -0.022221802 -0.32070026 0.10031118 -0.17727154
000190 58 98 cc 3e 17 39 97 be c3 9d bc 3e 7c 3f 22 3e
       0.3995998 -0.29535744 0.36839113 0.1584453
0001a0 80 91 7f be 9a 91 e3 3d 43 42 ad 3c 23 47 e6 be
       -0.24957848 0.11111756 0.02114976 -0.44976148
0001b0 2a 93 32 3e 11 fa 6d 3d 84 4f 51 be 5a 3f 70 3e
       0.17438951 0.05809981 -0.20440489 0.23461667
0001c0 a7 f4 0d bf 1a 48 b7 be ec 9f b9 3c 21 30 0a 3f
       -0.55451435 -0.35797197 0.022659265 0.5397969
0001d0 11 37 f6 3e b3 29 4c 3e 79 c2 be 3e b8 56 09 3f
       0.48088887 0.19937782 0.37257746 0.5364795
0001e0 f5 ee 72 be 63 c1 c7 be 1a 26 0d be 7c 11 b1 bd
       -0.23723967 -0.3901473 -0.13784066 -0.08645913
0001f0 49 b5 91 3d 7d a1 bb be 99 f0 76 bd 36 b6 8c 3e
       0.071146555 -0.36646643 -0.060288046 0.27482766
000200 7b 3d 09 bf 44 f5 23 bc 01 2b fc 3e 0d 62 d2 be
       -0.53609437 -0.010007206 0.4925156 -0.41090432
000210 15 b2 83 bd f5 d4 ad 3e d9 49 8d 3c c5 01 67 be
       -0.06430451 0.33951536 0.017247127 -0.22559269
000220 33 e4 84 3e 7b 6a 7a 3e 30 c9 0a 3e 62 b9 82 3e
       0.25955352 0.24454682 0.1355331 0.2553206
000230 48 87 b1 bd 6a 3f 88 3e cd c5 56 3d 1d 1a 5c 3d
       -0.08668381 0.2661088 0.05243473 0.05373584
000240 27 4a 8a 3e d8 14 34 3e f8 70 7f 3e 44 52 d2 be
       0.270097 0.17586076 0.24945438 -0.4107839
000250 f3 a9 ac be 27 e3 44 3e 6a 78 82 bd 98 d5 d2 bd
       -0.3372341 0.19227277 -0.063706234 -0.10294646
000260 ed 0d 7f 3e 01 37 8b 3e c3 13 42 3d 9a fc cb be
       0.24907656 0.27190402 0.047382127 -0.39841157
000270 b9 4e e5 3e cb f0 e2 be 65 00 0d 3d c3 1b 50 3e
       0.44786623 -0.44324335 0.034424204 0.2032309
000280 cd 5d b3 be 95 ad 43 3e ff 44 3b be 8b 72 78 be
       -0.35032502 0.19109185 -0.18288039 -0.24262445
000290 b4 fe 67 bd 86 a7 5f 3e c9 f2 1a 3e 83 4e fb bd
       -0.05663939 0.21841249 0.15131678 -0.12270834
0002a0 04 28 77 3d ce 35 9f bd a1 50 ab 3d c0 ea 8e bd
       0.060340896 -0.07773934 0.08364988 -0.06978369
0002b0 80 ac a2 be 5f d8 f2 bd b9 a3 07 be 7c 96 f4 ba
       -0.31772232 -0.11857676 -0.13246049 -0.001866057
0002c0 bc 78 7c 3e a9 b6 9c 3e 32 b7 89 3e d6 18 25 be
       0.24655432 0.3060811 0.2689758 -0.16122755
0002d0 e4 39 b3 3e a4 55 53 3e 60 23 c2 3a 71 62 b2 3e
       0.35005105 0.20638138 0.0014811568 0.3484073
0002e0 c8 ed 5f be 27 fa db be c2 41 61 3e df c5 f3 be
       -0.2186805 -0.4296429 0.21997741 -0.476119
0002f0 ff 49 e3 3d 4d a2 b0 bd 54 74 33 3e 18 d7 31 be
       0.11098098 -0.086247064 0.17524844 -0.17367208
000300 ad 7c 04 3e fb 2a 72 be 5d f6 e7 3d 59 b8 d6 3d
       0.12938185 -0.23649208 0.11326287 0.1048438
000310 41 b4 3a be 60 8a 02 3e 24 6d 44 3e 71 d9 5e be
       -0.18232824 0.12748098 0.19182259 -0.21762635
000320 61 78 1c be dc 95 24 3c cc 21 90 3e 2e 9f 51 be
       -0.15280296 0.010045495 0.28150785 -0.20470878
000330 9e 99 de bd e0 0a 81 3e ef f7 32 bd e3 39 46 bd
       -0.10869144 0.2520361 -0.04369348 -0.04839505
000340 cc 8b 92 3e c3 e7 b0 be 39 10 40 3e 52 db 00 be
       0.28622282 -0.3455182 0.18756188 -0.12583664
000350 3b 4c 50 bd 36 bd 52 3e bf 86 7a be db 11 41 3e
       -0.05085395 0.2057999 -0.24465464 0.18854468
000360 fa b2 7d 3e b3 3e 58 3e 8d 4a 1d be 67 19 b2 be
       0.24775305 0.21117668 -0.1536047 -0.34785005
000370 90 90 d5 be 5f b5 e1 3d 73 b9 8e 3e 0a af 80 3e
       -0.41711855 0.11020922 0.27875862 0.25133544
000380 76 b3 36 3e 8e 50 8c bd 53 c7 3e 3e 7a 59 0b 3e
       0.17841896 -0.06851302 0.18630724 0.13608351
000390 49 76 89 be aa 86 70 3c 55 54 ea 3d 6e 9b a0 bc
       -0.26848057 0.014680544 0.11441866 -0.019605365
0003a0 9a 41 74 be 3c ef dd bd 0d f1 c2 be 06 99 b2 be
       -0.2385315 -0.10836646 -0.38074532 -0.34882373
0003b0 e2 b1 80 3e e8 58 d9 be 81 de ac 3e 6a 0e e5 3b
       0.25135714 -0.42450643 0.33763507 0.0069902437
0003c0 ef 63 d9 3e 57 7a 63 3e 62 f2 98 3d 63 2b ca 3c
       0.42459056 0.22214638 0.07468106 0.024678892
0003d0 16 b8 25 bd 65 e7 f8 be 18 a7 63 3e 41 18 08 3f
       -0.04045876 -0.4861404 0.2223171 0.5316201
0003e0 39 7b 72 bd ff 2f 6c be fe db 9a bd d8 04 8f 3e
       -0.059199546 -0.23065184 -0.075614914 0.27933383
0003f0 8e 76 2e 3c 17 a0 ce bd 54 c9 d6 be eb 24 3f 3e
       0.010648383 -0.100891285 -0.41950476 0.18666427

conv1.bias f4 [32]
000000 45 b6 83 be c4 0e 7d be 70 8c 75 be 2a 6a 12 be
       -0.25724998 -0.24712664 -0.23979354 -0.14298311
000010 0f 1b 93 be b2 01 e4 bd e5 47 63 be 9b 0d 52 be
       -0.28731582 -0.11133136 -0.22195394 -0.20513003
000020 97 b2 de be b9 70 38 be e6 54 9a be d5 20 78 be
       -0.43495628 -0.1801175 -0.30142897 -0.24231274
000030 65 b3 5b be ad d8 eb bd ef e4 15 be 3d b7 9b bd
       -0.21455152 -0.11515937 -0.14638112 -0.07603309
000040 89 75 81 be 94 6a 0c be 11 be b0 be b3 d6 b4 bd
       -0.25284985 -0.13712531 -0.3452001 -0.08830013
000050 42 be 3d be 32 82 17 be 64 7a 1d be 5b f7 ed bd
       -0.18529609 -0.1479576 -0.1537872 -0.11619445
000060 bb 79 3a be 4a 24 b9 be 1a d4 90 be 7a e2 4c be
       -0.18210499 -0.361605 -0.2828682 -0.20008269
000070 43 d3 1d be ba 96 2e be 23 89 e1 bd ea ce 8a be
       -0.15412621 -0.17049685 -0.11012485 -0.27110988

conv2.weight f4 [64, 32, 3, 3]
000000 ce 3a 83 be b0 83 96 be 21 cf d7 3c fd c3 60 bd
       -0.25630802 -0.29397345 0.026343884 -0.05487441
000010 2b 6c d2 bd 35 7c 9c 3d fd 89 ed 3c 52 2a c5 3d
       -0.10274538 0.07640878 0.028996462 0.096272126
000020 c5 25 14 be 94 98 86 be d3 43 5c be 01 7d 14 be
       -0.14467533 -0.26288283 -0.21510248 -0.1450081
000030 4e f5 56 bd 7e 17 23 bc ac 33 24 be 5b 01 6a 3d
       -0.052480035 -0.009954331 -0.16035336 0.0571302
000040 f6 e7 09 be 99 83 c0 3d 36 84 a3 bd e5 19 c8 bd
       -0.13467392 0.094001 -0.079842016 -0.09770564
000050 8a 3f 68 bd 8e cc 97 be a1 26 6c be 01 b1 9c 3c
       -0.05670122 -0.2964825 -0.23061611 0.01912737
000060 1e 6c cd bd dc 09 0d 3c 35 a6 0e be 5c ab 46 3d
       -0.10030387 0.008608308 -0.1393059 0.048503265
000070 1d b8 b1 bd ba 71 8c 3d dc fe 1a 3e b2 f1 3a bc
       -0.08677695 0.06857629 0.15136284 -0.011410164
000080 90 2a a8 bd 56 65 16 bd 22 59 cc bc 64 7a 10 3e
       -0.08211243 -0.036717735 -0.024944846 0.14109188
000090 9a 69 71 3c 2b fe 55 bd 9f 47 7e be ca 55 66 be
       0.01473465 -0.052244347 -0.24832009 -0.22493663
0000a0 a7 27 9b be d8 b1 41 bd d8 8a 3b bd 21 1c da 3c
       -0.3030369 -0.047288746 -0.04578671 0.026624741
0000b0 10 58 04 3c d9 88 8b bd 63 e8 74 3d 4f 1d 84 bc
       0.008077636 -0.06813211 0.059791934 -0.016127257
0000c0 18 37 83 3d 2b 9e 67 3e 7d a6 6c 3e 7f 69 8f 3e
       0.06406993 0.2261893 0.23110385 0.28010175
0000d0 1d 53 c3 bd 71 23 9c bc 2d 66 f7 bd fa b2 2c be
       -0.09537337 -0.019059869 -0.12080035 -0.16865149
0000e0 ab 98 9a 3d b9 fc 3c 3d 12 8c 06 be c1 5f 90 3b
       0.0754865 0.046139453 -0.1313937 0.004405946
0000f0 8d 3d 9a 3d 16 f4 bb bd cb e2 c7 3c 43 13 ca 3d
       0.07531271 -0.09177415 0.024400136 0.09866955
000100 12 e6 e5 3c bc 38 d2 bd bd b8 61 bd 15 08 a9 bd
       0.028063808 -0.102647275 -0.05510782 -0.08253495
000110 c6 3e 7a 3c 88 71 9c 3c 88 13 a9 3d 68 c8 a7 3d
       0.015273755 0.019097105 0.082556784 0.08192521
000120 99 8c 08 be ac 7c 07 be 0f 4c 7a 3d ec 98 48 be
       -0.13334884 -0.13231152 0.06110769 -0.19589585
000130 07 0f af 3c da f4 da 3c 1f 49 21 3b d6 ae 0c be
       0.02136947 0.026728082 0.0024610234 -0.1373857
000140 8a 8e 71 be f3 e3 af 3d 7c fb 45 3e 25 50 60 3e
       -0.2358953 0.085884 0.19334215 0.21905573
000150 16 88 b7 3d 07 98 2e 3e cc 44 17 3e d7 83 02 bc
       0.08961503 0.17050181 0.14772338 -0.007966003
000160 82 61 75 3e 64 8c 84 3d b8 f3 2d be 8e 0e 88 be
       0.23962978 0.0647209 -0.16987503 -0.26573604
000170 88 d0 74 be e3 99 a6 bd eb 33 11 be 4f 1e 7a be
       -0.23907673 -0.0813482 -0.14179961 -0.24425624
000180 d1 db a0 bd c3 ee 3a be f7 65 a6 bd e0 dc 66 3d
       -0.07854427 -0.18255143 -0.08124917 0.056362987
000190 49 a6 2d be 67 97 af 3d 4e 5e 43 3e 04 c2 e1 bd
       -0.16957964 0.085737996 0.19078943 -0.11023334
0001a0 a0 ce 2a be 63 13 27 3b 00 2a c3 3c c5 17 9f 3d
       -0.16680384 0.0025493733 0.023823738 0.077682056
0001b0 b8 e9 06 3d a2 5c 97 bd 87 74 34 3e 1c 08 ea 3d
       0.032937735 -0.07390715 0.17622577 0.11427328
0001c0 07 30 7f 3d e5 66 c2 3d 17 26 4b 3e 2e 7f 84 3e
       0.06230166 0.09492282 0.19838749 0.2587828
0001d0 ae 33 de bd de d3 1c be 1b 1d 59 bd 66 d6 3d 3d
       -0.10849701 -0.15315196 -0.053006273 0.046347044
0001e0 31 4e 2a 3d 3e 1f b2 3d 75 b7 6c bd 0b c0 87 3d
       0.041578475 0.08697365 -0.057792146 0.06628426
0001f0 f7 4d a1 bd ea 5a 05 3e 5b a1 37 be 38 8f af bd
       -0.07876199 0.13022962 -0.17932646 -0.08572239
000200 00 b9 b5 3d c4 f0 a9 bc 1f cb 3f bd 58 ac 9f 3d
       0.088731766 -0.020744689 -0.04682457 0.07796544
000210 ce d4 53 3e 02 6d 04 bd d8 7f a5 bd cf b2 f0 3c
       0.20686647 -0.03233052 -0.08081025 0.029382138
000220 1d c0 69 3d 25 f2 5a 3b 34 1d 4c 3d 46 e5 1c bd
       0.05706798 0.003340849 0.049832538 -0.03830459
000230 fc c1 11 bb a6 54 2a be 08 82 bf 3c 1e c1 9a bd
       -0.0022240868 -0.16633853 0.023377433 -0.075563654
000240 5d 9d 60 be 70 82 30 ba f7 7f e8 3d 56 db 60 3d
       -0.2193503 -0.0006733304 0.11352532 0.054896675
000250 da ed 6d 3e 01 3a 11 3e 09 f1 bc 3d e6 2d 96 3a
       0.23235264 0.14182283 0.09225661 0.0011457771
000260 fb 72 0a 3b 9d 67 cc bb ce 58 97 bc 25 16 60 3d
       0.0021125663 -0.0062379376 -0.018474963 0.05470862
000270 c6 85 83 3e c9 f8 0f 3e c3 06 26 3d 2a 16 ca 3d
       0.25688 0.14059748 0.040533792 0.09867509
000280 34 cd 47 3e db 57 09 3e 93 50 6b be db bd 94 be
       0.19511873 0.1341242 -0.22979955 -0.29051098
000290 59 ab 9b bd fb ff 3e be 50 46 31 be b7 c9 07 be
       -0.07601041 -0.18652336 -0.17311978 -0.13260542
0002a0 c4 49 04 be 86 4a 21 bd 61 be d1 bd 0a 9c 4f 3d
       -0.12918764 -0.03937771 -0.1024139 0.05068592
0002b0 47 19 c5 bd 35 ea da bd 36 bb 12 bd 78 e8 0c be
       -0.09623962 -0.10689203 -0.03582307 -0.13760555
0002c0 24 75 3a 3d bc 81 e7 3b 7c 52 5a 3e 84 6b 74 bc
       0.04552187 0.007065026 0.21320528 -0.014918212
0002d0 18 c9 21 3d e6 2b 84 bd 67 53 d2 3c 18 29 0c 3e
       0.03949842 -0.064536855 0.025674535 0.13687551
0002e0 d9 33 d4 3d 7f bf 97 bd 95 ac ab 3d 53 49 c8 3b
       0.10361452 -0.07409572 0.08382527 0.0061122566
0002f0 a7 39 33 3e 38 b9 d1 bd 95 fc ca bd 90 37 b9 bd
       0.17502461 -0.10240406 -0.099114574 -0.09043801
000300 10 9f 06 3e e6 08 f0 3c 3e bc ca bd 4a 70 da 3b
       0.13146615 0.029301118 -0.098991856 0.006666218
000310 46 66 da 3d a6 38 ec 3c 5d d4 45 be e9 2a 0d be
       0.10664038 0.028835606 -0.19319291 -0.137859
000320 da 41 81 3b 67 39 d2 3c 1a bb 26 bc 9c 97 21 3a
       0.0039446177 0.025662137 -0.010176444 0.0006164254
000330 d7 d5 26 3e 46 17 cb bd 4f e2 35 bd b2 d5 cc 3c
       0.16292511 -0.099165484 -0.044405278 0.025004242
000340 d1 8c 76 bc 42 83 3e bc 1f 3f 2b 3e 2b 00 87 3d
       -0.015048222 -0.011627974 0.16723298 0.06591829
000350 ec 18 f2 3c 64 14 9c 3c 12 74 c0 3d a9 cd 87 3d
       0.0295529 0.019052692 0.09397139 0.066310234
000360 83 52 ca 3d e1 24 a1 bd e0 5f aa bd 27 95 ac bc
       0.09879019 -0.07868362 -0.08319068 -0.021067215
000370 84 8d df 3c 94 59 ba 3d 82 9a ad bc e7 dc 00 3e
       0.02728916 0.09099117 -0.02119184 0.12584268
000380 7f d9 2d 3c 45 26 4c be 1d b8 27 be f0 c7 49 be
       0.010610937 -0.19936474 -0.16378827 -0.19705176
000390 b7 fd e9 bd 78 10 b9 bd 12 c6 c6 bc 32 32 d9 bc
       -0.114253454 -0.09036344 -0.02426437 -0.026513193
0003a0 2d 66 8d bd ec ee 15 be 26 ab f8 3d 48 0c 66 bd
       -0.06904254 -0.14641923 0.12142019 -0.056164056
0003b0 e8 36 05 be 3a b9 27 3a fd ed 99 be 12 4b a6 bc
       -0.13009226 0.00063981453 -0.30064383 -0.020299468
0003c0 84 95 a3 bd 3e 99 04 3e ed 1e 2c 3d 54 42 c1 be
       -0.07987502 0.12949082 0.04202168 -0.37745917
0003d0 60 94 23 be 97 8c 54 3c b8 8c 8e bc bd d7 3c 3e
       -0.1597457 0.012972972 -0.017401084 0.18441673
0003e0 97 c5 43 3e 3c d7 6e 3e 1e ce a4 3d f8 16 55 be
       0.19118343 0.23324293 0.08047126 -0.20809543
0003f0 da 18 1a be ce a8 91 bd 3e 48 68 bd 01 a0 e3 bd
       -0.15048543 -0.07112275 -0.05670952 -0.11114503

conv2.bias f4 [64]
000000 f1 92 12 be f7 5c 30 bd 84 75 f0 bd 53 94 ed 3c
       -0.14313866 -0.04305741 -0.11741164 0.02900139
000010 31 12 77 3b 21 f9 11 be d2 34 59 3d 13 a6 ef bc
       0.0037700052 -0.14255191 0.05302889 -0.029253995
000020 ac 84 a3 bd f4 86 01 bd 27 5a 46 bd 71 fc d7 bc
       -0.079842895 -0.031622842 -0.04842582 -0.02636549
000030 36 ad 95 bd 96 a4 f2 bd c7 97 48 bd b1 34 8d bc
       -0.07308428 -0.118477985 -0.04897287 -0.01723704
000040 9c 3b b6 bd bb 10 55 3d 20 15 4a bd 07 61 a2 3a
       -0.08898088 0.05201791 -0.049336553 0.0012388536
000050 17 40 83 bd 7c 90 a1 bd 27 8c 85 3c e8 42 5e bd
       -0.064087085 -0.07888886 0.016302181 -0.054263026
000060 c0 66 a3 bd e2 6d b6 bc e1 db af bb 50 26 8d bd
       -0.079785824 -0.022269193 -0.005366788 -0.06892073
000070 42 83 42 3b c0 71 24 bd 70 17 69 bd d8 ad 8a 3c
       0.0029680287 -0.040147543 -0.056907117 0.016928598
000080 a1 d4 c2 bd 93 b8 32 bd f5 af 23 be c1 60 12 bd
       -0.09513212 -0.043633055 -0.15985091 -0.035736803
000090 00 f4 8d bd 81 1c 9c bc 68 47 28 be 66 f4 31 bd
       -0.06931305 -0.01905656 -0.1643349 -0.043445967
0000a0 9c 1b 71 bd 24 3e 9c bd 41 80 30 bd 59 ef 9e bc
       -0.05886422 -0.0762904 -0.043091062 -0.01940124
0000b0 f7 d0 3d bd 1d 9d 12 be 27 54 6a bd 03 42 4b 3b
       -0.046341863 -0.14317746 -0.05720916 0.0031014688
0000c0 a9 ee 0e bd 99 39 a4 bd 54 60 58 bd bf 4e 1f bd
       -0.034895573 -0.080187984 -0.05282624 -0.038893458
0000d0 b7 c0 44 bd 27 53 97 bd a3 1f 33 bd e1 08 c4 3d
       -0.04803535 -0.07388907 -0.043731343 0.09572006
0000e0 65 56 ab 3c be 89 0d be 6a 91 80 bd 7c 69 d6 bd
       0.02091522 -0.13822076 -0.062777355 -0.10469338
0000f0 3c 1b bf bd a9 52 7b 3c 7f e5 a9 bd da 96 71 bc
       -0.093313664 0.015339532 -0.08295726 -0.0147454385

fc1.weight f4 [128, 1600]
000000 0f 1f a2 bc 92 2e 15 3b a3 cb fc 3c b8 5b f1 bd
       -0.0197902 0.0022763354 0.03085882 -0.11785072
000010 36 9a f5 bd 03 89 10 3d ca e3 39 3d 67 9c bd bc
       -0.11992304 0.035286915 0.045383252 -0.023145868
000020 d5 69 a4 3d 48 c3 3e 3d c0 92 18 3d 78 90 3e 3c
       0.08027998 0.046572953 0.037249327 0.011631124
000030 51 de fb 3d 6e 04 7c bd be 9b a4 3d 1b 75 82 3d
       0.12298263 -0.061527662 0.08037518 0.06369992
000040 45 87 3a 3d 28 b2 fd 3d 45 be df 3d a4 1f 3f bd
       0.04553916 0.12387496 0.10924963 -0.046661034
000050 75 ea 06 bd c6 8d ef bc 23 68 a7 bd b2 dd 15 3d
       -0.03293844 -0.029242408 -0.081741594 0.03658838
000060 e2 09 97 bc f7 d5 f8 3b 3d b4 72 bd 7f 91 1d 3e
       -0.01843733 0.007593866 -0.05925392 0.15387534
000070 ff 65 71 3c 5a d5 e5 bd 70 07 cb bd c1 be 54 3c
       0.01473379 -0.11222334 -0.09913528 0.012984932
000080 85 f7 b5 3a 58 a8 91 3e 19 07 ba 3d 8b 82 73 bd
       0.0013882971 0.2844875 0.09083385 -0.059450667
000090 e6 b8 b7 bd cd e0 c9 3c d2 16 f5 bd dd e4 fb bd
       -0.089708135 0.024643326 -0.11967243 -0.122995116
0000a0 7c f9 28 bd d1 0a 05 be 8c ec c7 bd a4 1b c8 be
       -0.04125355 -0.12992407 -0.097619146 -0.39083588
0000b0 88 88 c7 bd 8f d6 77 3d 4c 55 08 3d 74 ff b6 3d
       -0.09742838 0.060507353 0.03328447 0.089354426
0000c0 bb 85 bc be 27 14 41 be 0b 32 78 3d ca 51 d5 bc
       -0.36820778 -0.18855344 0.0605946 -0.026039977
0000d0 fc 85 0d 3e ef 94 16 3e 42 02 a8 bc 78 33 99 3d
       0.13820642 0.14705251 -0.02050889 0.0748052
0000e0 e6 53 87 3d a5 da 6a 3c b6 95 5f be ec 70 19 3d
       0.06607799 0.0143343555 -0.21834454 0.037461206
0000f0 a4 29 4d be fe 18 d0 3c 93 1f c1 bd 75 5f 9e bd
       -0.20035416 0.025402542 -0.094298504 -0.07733051
000100 45 d2 08 bc 93 e6 84 bd bc 40 49 3d 33 68 3a 3d
       -0.008350913 -0.06489291 0.049134 0.04550953
000110 86 88 f7 3d 21 d0 4d 3e 8f 3d 42 3d b1 9b 9f 3c
       0.12086587 0.20098926 0.047421988 0.01948342
000120 4b 8d 28 be e4 ec c7 3d d0 65 a5 bd cb af 0d 3d
       -0.16460149 0.0976198 -0.0807606 0.034591477
000130 c6 fa 56 3d ab 64 da 3d 61 8c 8a bd 27 41 8d bb
       0.05248525 0.10663732 -0.067650564 -0.0043107453
000140 bc 94 52 3e e6 06 33 be 74 7a 7d bc 3d 28 e7 3c
       0.2056455 -0.174831 -0.01547109 0.02821743
000150 4a 3d 97 bd de 39 29 3e f8 21 24 3d be 7d b6 bc
       -0.07384737 0.16525981 0.040071458 -0.022276755
000160 86 f5 91 3d 26 43 be 3d 37 0a 67 3e b9 38 99 3d
       0.07126908 0.09290151 0.2256249 0.07481522
000170 8e c6 8a bc bd a5 0b 3e ac d5 82 bd 2d 6c d9 bd
       -0.016940381 0.13637443 -0.06388411 -0.10616336
000180 b4 1e 64 be 5e 8d 03 3e 4d b8 16 3e 35 81 3b bc
       -0.22277337 0.12846896 0.14718743 -0.01144438
000190 f9 00 fb bc 30 19 55 bd 42 94 9b bc 0e 02 8a 3d
       -0.030640112 -0.052025974 -0.018991593 0.06738673
0001a0 75 f4 35 3d 67 aa 0c bd 65 5b 67 bd 5a 5e ca 3d
       0.044422586 -0.034342196 -0.056483645 0.098812774
0001b0 98 90 f5 3d a7 e4 99 bc bd e4 25 be bb 6c 17 bc
       0.1199047 -0.018785788 -0.16200538 -0.009242232
0001c0 9a 2f 3c bd ac 52 4c bc 6a 41 24 3d c5 84 a5 bd
       -0.045943834 -0.012470882 0.040101446 -0.080819644
0001d0 e4 84 f6 3c 70 1f 23 bc 7e 13 69 3e cf 43 96 bd
       0.030092664 -0.009956226 0.22761342 -0.07337152
0001e0 6a d5 08 bc 78 60 1c 3e 11 2c 3a bc 3b d0 01 3d
       -0.008351663 0.15271175 -0.011363045 0.031692725
0001f0 42 78 38 bd 20 3f 64 bd ca c0 ee ba 89 e4 14 3e
       -0.04503656 -0.055724263 -0.0018215415 0.14540304
000200 67 0d 82 3c f8 62 c9 bd 07 38 01 3e 73 46 2a 3e
       0.015875531 -0.0983333 0.12619029 0.16628437
000210 19 a9 9e bd b2 c9 64 3e 41 8b 52 3d c1 fb d9 bd
       -0.077470966 0.22342566 0.051402334 -0.10643721
000220 74 f9 65 3c fe 47 50 3e fb 1b 28 3d 06 42 3d 3c
       0.014036525 0.20339963 0.04104231 0.011551386
000230 df b2 bb bd 8d ca 07 3d 02 7e ee 3d e3 4f 11 be
       -0.09164976 0.03315215 0.11645128 -0.1419063
000240 ca f1 a0 bd dd c6 11 3e cb bc ac bc 95 70 6d be
       -0.078586176 0.14236017 -0.021086117 -0.23187478
000250 7c 34 84 bc 9d ed 88 bd b2 a6 5a bc d6 df a1 be
       -0.016138308 -0.06685946 -0.013345407 -0.31616086
000260 54 0c 92 3c 17 2a d8 be 88 2a 06 be ac 4c f2 3d
       0.017828144 -0.42219612 -0.13102162 0.1183103
000270 32 07 1e be 76 b2 d4 bd 5d 45 59 be cf a6 95 bd
       -0.15432432 -0.10385601 -0.21217866 -0.07307207
000280 08 d4 bb 3d d3 cf ab 3d ea a2 c5 bd 0c 2e 90 3d
       0.09171301 0.08389249 -0.09650214 0.07040033
000290 7f c7 09 bd 9d b5 03 3e 32 bd 86 3d 91 e3 81 3d
       -0.03363752 0.12862249 0.06579055 0.06342233
0002a0 96 a5 dc 3c 21 16 33 3c 90 ca f3 bc a9 0e 5b bd
       0.026934426 0.010930569 -0.029759675 -0.053480778
0002b0 8e d0 6b 3d 1e 02 72 3e d1 b4 c7 3d 0c de 0b 3d
       0.05757194 0.2363362 0.09751285 0.034147307
0002c0 36 09 89 bd 12 68 7c bc 3f 4d a8 3d ba ff 16 be
       -0.0669121 -0.015405672 0.082178585 -0.1474599
0002d0 81 3f 63 bd c3 8e c3 bd cf b4 b7 bd f4 bd e2 bb
       -0.055480484 -0.09548714 -0.089700334 -0.006919617
0002e0 21 f1 8e bd 93 c3 35 3d 7b 01 4a be 09 1e f4 bd
       -0.069795854 0.044375967 -0.19727127 -0.11919791
0002f0 95 63 90 bd 6d d7 18 3d a3 fe dc bd ec ce af bd
       -0.07050244 0.03731482 -0.107907556 -0.08584389
000300 51 43 d8 bd 10 96 b7 bd 73 97 cb bd 26 d0 49 3d
       -0.105597146 -0.08964169 -0.09940996 0.04927077
000310 af fd 57 3d 54 7a 60 bd 91 74 55 3c fb 6a 00 be
       0.052732166 -0.05480416 0.01302828 -0.1254081
000320 f2 9b 8d 3d 80 43 ea bd 8d e9 62 be 13 71 15 be
       0.0691451 -0.11438656 -0.22159405 -0.14593916
000330 f6 b4 65 be d4 1f 51 3d 8c d7 b9 3d 49 64 2b bd
       -0.22432312 0.051055744 0.090743154 -0.041843686
000340 68 fe e4 bd b9 13 21 3c 00 78 b0 3d c4 9a 04 3e
       -0.11181337 0.009831362 0.08616638 0.12949663
000350 64 08 22 3c 97 9d d0 3d 0f bc 8e 3d 5a c2 c9 3d
       0.009889696 0.10186308 0.06969463 0.09851523
000360 c6 41 a0 3d 16 e8 32 3e af 6f b2 3d c9 71 96 bc
       0.07825045 0.17471346 0.08712708 -0.018364804
000370 90 ab 93 3c 28 85 d4 3d cf 3e 2e 3e c1 ea 5f 3c
       0.018026143 0.1037696 0.17016147 0.01366681
000380 2d 72 75 be 89 5f 28 3d 76 95 80 3c c7 3a 84 bd
       -0.23969336 0.041106734 0.015696269 -0.064565234
000390 2f 79 4a bd 96 c3 00 be 11 5d d2 bd 26 d0 b8 bd
       -0.049431976 -0.1257461 -0.10271657 -0.09024076
0003a0 65 fd a5 3d 73 0a b7 3d e3 55 c0 3c ac a1 22 3e
       0.08104972 0.0893754 0.023478454 0.15881985
0003b0 e6 a7 c2 bc d1 ea 65 bd 5a 81 25 3c 37 23 9d be
       -0.0237617 -0.05613214 0.010101641 -0.3069093
0003c0 33 54 69 3c 2f aa b2 bc 11 3f a1 bd a0 67 5e be
       0.014241266 -0.021809665 -0.07873357 -0.21719217
0003d0 68 8f 8c 3d 5e a4 19 3d 67 fe aa bd da 38 26 be
       0.0686329 0.03751027 -0.08349305 -0.16232625
0003e0 0b 9f 2a be 25 81 94 3d db 8d 9e bd 00 0f 48 bd
       -0.16662233 0.07251195 -0.077419005 -0.04884243
0003f0 fc ad 4e 3e 81 a5 8d 3c dd 3c 24 be 0a 8a cf 3d
       0.20183557 0.017290832 -0.16038842 0.10133751

fc1.bias f4 [128]
000000 82 47 bc bc 18 04 03 3c ae f3 3b bd f2 f0 c5 bc
       -0.022983316 0.0079965815 -0.045886688 -0.024162743
000010 8b 01 51 3c 67 e9 5a bd ee 04 9a bc 64 42 aa bb
       0.0127567155 -0.053445246 -0.018801179 -0.0051959027
000020 4e 2c b6 bc c7 92 61 bd c3 d4 01 3c 9c d4 76 3c
       -0.022237923 -0.05507162 0.0079242615 0.015065338
000030 67 50 fd 3c 6c b9 e7 3c 88 4d 36 bc a8 72 0c bb
       0.030922128 0.028286658 -0.011126883 -0.0021430645
000040 f4 51 b8 3c b1 29 8e 3d b2 5e 18 3d 4d 16 00 bd
       0.022500016 0.06941546 0.037199683 -0.031271268
000050 44 a4 d8 3c 82 3e 71 bd 13 ad 26 bc 8c a3 7f bd
       0.026445515 -0.058897503 -0.0101731 -0.06241183
000060 56 18 aa bb 79 b4 e3 bd f3 93 67 3c 73 82 10 bc
       -0.0051908894 -0.11118407 0.014134395 -0.008820164
000070 ac bb 25 3c e1 a9 20 bd ca 2e 9e bc a3 59 ee bc
       0.010115545 -0.03922451 -0.01930942 -0.029095476
000080 7e 80 e2 bb bd ad 17 bd 3d bc d6 3d e4 8f 79 bd
       -0.00691229 -0.037030924 0.10485122 -0.06092824
000090 5e 9e b3 3d 6d 8e e5 bc 34 95 1c 3d 34 5a 77 3d
       0.087704405 -0.028022015 0.03822823 0.06038876
0000a0 4b b0 2a 3c e7 09 e3 bc e7 b8 fa 3c 55 e7 b1 3b
       0.010418008 -0.027714683 0.030605746 0.0054291883
0000b0 99 9c a4 3b 3f c5 7e bd fe 13 2d bd 73 a8 91 bc
       0.0050235507 -0.062199827 -0.042255394 -0.017780518
0000c0 0f 02 a5 3c 8a e1 a0 3c 72 2e 4c 3d 9e 41 f4 bd
       0.020142583 0.019638795 0.04984898 -0.11926578
0000d0 da 24 b3 3d 6a b3 bd 3d 74 28 7f bd 64 a7 36 bd
       0.08747263 0.09262736 -0.06229444 -0.04459323
0000e0 b3 87 38 bd 60 73 9a bd 94 12 4d bc bb 45 ab 3c
       -0.045051288 -0.07541537 -0.012516636 0.020907274
0000f0 ba 7a 89 bc eb a8 9e 3b e4 65 3a 3d b0 53 2a bd
       -0.016782153 0.004841914 0.045507327 -0.041583717
000100 91 90 66 bb 49 83 0b 3c 9a 58 89 3c 9b 76 2d bd
       -0.0035181383 0.008515188 0.016765881 -0.04234944
000110 cd af e8 bb 21 59 17 bd 78 67 ef bc eb 36 8a bc
       -0.007101035 -0.036950234 -0.029224142 -0.01687189
000120 cc b8 13 bc b9 63 1f bd bb 36 df bc 1c 12 26 3d
       -0.009016227 -0.038913462 -0.027247777 0.040544614
000130 ef 58 87 bd 37 79 82 bc 8c bc af 3a 78 d0 84 bd
       -0.066087596 -0.01592694 0.0013407632 -0.06485075
000140 4c 7a 67 bd ac ce a3 3c a4 0e 8d bc 7a 30 50 bc
       -0.056513116 0.01999601 -0.017218895 -0.01270687
000150 51 1a 44 bd 39 30 79 3d a8 37 f3 bd 30 1b 81 bd
       -0.04787666 0.060837004 -0.1187585 -0.06304014
000160 97 0a 22 bd b4 05 35 bd 2e 91 18 bd 0e 04 27 3c
       -0.03956088 -0.044194892 -0.03724783 0.010193838
000170 4e ca cf bc 2f 93 06 3d 09 e2 74 bc 65 1d 16 3d
       -0.025365021 0.03285521 -0.014946469 0.036649127
000180 7c ac 16 bb 22 a7 39 bd 80 95 9a bd 7a 97 a1 3c
       -0.0022990992 -0.045325406 -0.07548046 0.01972555
000190 cc 18 8f bc e0 f1 a7 ba 3b 9e 29 bd 3e bc c4 bc
       -0.017467879 -0.0012813173 -0.041410666 -0.024015542
0001a0 8c 2d 00 3d 18 07 09 b9 1d 31 23 bc cb ae aa b9
       0.031293437 -0.00013067981 -0.00996044 -0.00032555158
0001b0 7b 59 6b bd 1c c8 a9 bd f6 43 bf 3c 2b ad 19 3d
       -0.057458382 -0.08290121 0.023347836 0.03751866
0001c0 f3 6d f0 bc 8a 70 92 3d c2 0a ff bc 46 2b fc bc
       -0.029349303 0.071503714 -0.03113306 -0.030782353
0001d0 c0 06 a5 bd ee dd f0 bc a8 90 f8 bc 46 d6 96 bc
       -0.08057928 -0.0294027 -0.030342415 -0.01841272
0001e0 75 02 0c bc 78 96 b3 bc 18 da 4e 3c ed cb 1f bd
       -0.008545508 -0.021922335 0.01262524 -0.03901284
0001f0 1a d8 bc bc 3a 4f db bb dd f8 8a 3d 20 d0 2d bc
       -0.023052264 -0.006692794 0.06785748 -0.010608703

fc2.weight f4 [10, 128]
000000 48 9d 97 bd 82 7f 40 b7 1f c9 76 3d f8 dd 1f 3d
       -0.07403046 -1.14737795e-05 0.060250398 0.039030045
000010 15 a2 95 bd b7 fe ef be ff 1d 6e bd b9 98 95 bd
       -0.07306305 -0.4687402 -0.058134075 -0.0730452
000020 ae b3 a2 3d 04 cc 14 be 5f 4f 88 bd 35 41 b8 3c
       0.079444274 -0.14530951 -0.06655764 0.02249203
000030 a9 a6 9f 3d ce 4a 13 3d 15 cd 6b be 76 d0 be be
       0.0779546 0.03596001 -0.23027451 -0.37268418
000040 d0 44 2d bc 35 f8 d4 3d 62 7c a7 3d 4f 19 9f 3d
       -0.010575488 0.10398904 0.08178021 0.07768499
000050 f1 12 a7 3d 0b b9 c2 3d 1b df f4 3c 49 9b bc bd
       0.0815791 0.095079504 0.029891541 -0.09209306
000060 7d da 07 3e 60 3b fa ba d7 d5 51 be 83 27 f6 3d
       0.1326694 -0.0019091181 -0.2049173 0.12019255
000070 bd a8 2b 3d 8d e8 36 be 01 f8 25 bc eb 11 28 be
       0.04190897 -0.17862149 -0.0101299295 -0.16413085
000080 9d f1 9a be 81 81 bc bb cb 67 24 bc d1 10 63 bc
       -0.3026246 -0.0057527428 -0.010034512 -0.01385899
000090 7a 6e 89 3e 63 db 25 ba d3 de db bd 56 f6 12 3e
       0.268421 -0.00063269417 -0.1073586 0.14351782
0000a0 60 2e 5f 3d 01 d8 cd 3d f3 f3 70 bd c1 b4 bd 3d
       0.054487586 0.10050965 -0.058826398 0.09262992
0000b0 ab 0f 28 bd e6 38 73 be c9 39 13 be 27 82 bd be
       -0.041030567 -0.23752174 -0.14377512 -0.3701336
0000c0 a8 54 c4 3d 0a 6e 08 be d0 bd dd bd c0 4a 6f bd
       0.095864594 -0.13323227 -0.108272195 -0.058420897
0000d0 a1 95 09 ba 92 d3 6a bd ea 1c ea bd 87 69 f1 bc
       -0.00052484317 -0.057330675 -0.11431296 -0.029469265
0000e0 0f 5b 98 3d 12 51 54 bd 7d 3f 5f be 0c 33 1c 3e
       0.07439243 -0.051835127 -0.21801563 0.15253848
0000f0 5b cc d7 3c 00 21 91 3d be 08 da 3d ea 4f 8d bc
       0.026342561 0.070863724 0.10646199 -0.01725002
000100 29 16 85 bd ed 2e 4c 3e 02 44 8f bd 4b aa 5d be
       -0.06498367 0.19939776 -0.06995393 -0.21646993
000110 40 ea 85 3d 11 46 7a bc 04 26 18 be db 38 82 bd
       0.0653882 -0.015275494 -0.14858252 -0.063585006
000120 34 e9 9e 3d 11 c8 db bc 40 f7 e2 3d be 2d 2c 3e
       0.07759324 -0.026828798 0.110823154 0.16814324
000130 d5 16 3f 3e 66 3b 43 3d 8e c8 9e be 74 d1 3b be
       0.18661053 0.04766407 -0.31012386 -0.18341619
000140 80 24 44 be 46 e6 b1 3b 66 98 4c 3c 20 46 a6 bd
       -0.19154549 0.005429062 0.0124875065 -0.08118844
000150 cf e1 5c 3e 02 a9 8f be 54 1f be 3d 0e 80 8c bc
       0.21570514 -0.2805863 0.09283319 -0.017150905
000160 de e4 38 b9 cf 6b 97 3c 35 b1 e4 bc 7b 0b 21 3d
       -0.00017632867 0.018484024 -0.02791653 0.03931759
000170 97 7f d8 3d 7b d3 24 3c 17 4b a5 bd 66 66 58 3d
       0.10571211 0.0100601865 -0.08070963 0.05283203
000180 87 1a 5f 3d 61 62 8a be 80 d3 6e 3d e4 56 6b be
       0.054468658 -0.27028182 0.05830717 -0.22982365
000190 5e 32 1b be a0 55 46 bd 89 c7 af 3d 9a 4f 09 bd
       -0.15155932 -0.048421502 0.0858298 -0.03352318
0001a0 54 34 f4 3c 7c 61 98 be 36 c9 a6 3b 7c 71 05 bd
       0.029810108 -0.29761875 0.005089904 -0.03257893
0001b0 a0 aa 94 bd 6f c2 c5 3d dc a9 11 3d 0a db 8c be
       -0.07259107 0.09656226 0.03556238 -0.27510864
0001c0 2f f1 7e 3d 6b 92 90 be 3a 79 b8 3d ad 05 e9 3c
       0.06224173 -0.28236708 0.09007497 0.02844509
0001d0 39 ee 8e 3d 05 07 a3 3d 4f ea 6b 3d 8c 2e 7b bd
       0.06979031 0.07960323 0.0575965 -0.061323687
0001e0 05 2c cf bc e7 a5 9a 3d 93 8a e3 bc 72 ae 7c 3b
       -0.025289545 0.075511746 -0.027776038 0.0038556126
0001f0 97 ef 83 bd e8 a4 22 3d 79 7b 9e be 09 88 ab 39
       -0.064421825 0.039708048 -0.30953577 0.00032717016
000200 81 0d a0 3d 7e b5 24 bd 19 73 59 be ed 25 aa 3c
       0.07815076 -0.040212147 -0.21235313 0.020770038
000210 ad a0 b5 bc de ae 37 be f6 9a 04 bc 27 3a ce bc
       -0.022171343 -0.179378 -0.008093586 -0.025174214
000220 e8 48 b3 be 9d de 51 bd b3 3a 06 bd e3 1e cf 3d
       -0.3501656 -0.05123769 -0.032770824 0.10113313
000230 f1 d6 00 3e 77 b5 88 3d f0 f4 97 bb f9 db 05 3d
       0.12581994 0.06675237 -0.004637353 0.032680485
000240 f1 fd 1e 3e e5 b3 69 3e cb 10 1f bd 90 dd 0d 3d
       0.15526558 0.2282253 -0.038834374 0.034635127
000250 a8 ba 09 3e 4f ca 92 bd f8 d8 d5 3c 4a 5f 4c bc
       0.1345011 -0.071674936 0.026104435 -0.012473891
000260 f7 4d 94 be 0b 0b 1a 3e 02 68 1f 3d 0b 03 27 be
       -0.28965732 0.15043275 0.03891755 -0.16309755
000270 9d c2 bf 3c 7d b3 75 be db b3 1e bd 5f 67 06 bd
       0.023408229 -0.2399425 -0.038745742 -0.032813426
000280 06 f1 51 3d 49 8b e9 bd b6 4d 0a 3e a5 63 d0 bc
       0.05125525 -0.1140352 0.13506207 -0.02543814
000290 5e ed 1c 3e 0c 8d e0 3c 13 3c 98 bd 0d dc e6 3d
       0.15324923 0.027411006 -0.07433333 0.1127244
0002a0 08 e1 94 3d b2 24 61 be 10 d0 e1 3d 40 ba 63 bd
       0.07269484 -0.21986654 0.11026013 -0.055597544
0002b0 9e 85 03 3d 8c 1d 11 3d b9 3d dc 3d 26 5b 64 3d
       0.03210985 0.03542857 0.1075396 0.05575099
0002c0 dd 70 0f bd 6b ce 10 3d b8 eb d4 3c 38 95 c8 bd
       -0.035019744 0.035353106 0.025991306 -0.09794086
0002d0 76 8f 91 3e 85 a5 4d 3e f1 95 b7 bd e1 4b d6 3d
       0.28429765 0.20082672 -0.08964146 0.104636915
0002e0 00 c9 3c bd bd c3 68 be b4 87 c8 3d 98 d9 ae bd
       -0.046090126 -0.22730918 0.09791508 -0.085375965
0002f0 8c b8 9b bd ee 39 8d bc ce ef 8b 3d ea d4 cb 3c
       -0.07603559 -0.017239537 0.068328485 0.024881799
000300 0a ac 08 bd 92 73 8b be a5 ec 27 be 11 e9 07 3e
       -0.033367194 -0.2723661 -0.16398866 0.13272502
000310 14 73 03 bd 6e 47 af 3b e4 74 0e be 6b 2e 82 3e
       -0.03209217 0.0053490913 -0.13911778 0.2542604
000320 a9 74 f6 bb ff 26 24 be e5 4c 7a be 9f d4 fc 3d
       -0.007521231 -0.16030501 -0.24443395 0.12345242
000330 77 2f f0 be 37 c5 77 3d 79 0a 7c bd 24 fc 2f be
       -0.46911213 0.060490813 -0.061533425 -0.17186028
000340 9a f4 ec bd 8d 0f f9 3d a6 d9 9d bc ae 09 44 3d
       -0.115700915 0.12161169 -0.019268822 0.047860794
000350 0f b6 a2 bd 81 7a 03 3e ab 58 42 be 61 bc 6b be
       -0.07944881 0.128397 -0.18979137 -0.2302108
000360 39 d2 0a 3d b2 37 ad 3d 46 1f 9c bd 5a ba 1c 3d
       0.03389189 0.08457889 -0.076231524 0.038263656
000370 6d 3f 4e be 17 be 99 3d 49 32 eb 3c da 19 c4 3d
       -0.20141383 0.0750696 0.028710501 0.09575243
000380 4e 26 49 3d 7e fd 2c be 2c 5d 85 be 71 cf c1 3d
       0.049108796 -0.16893575 -0.26047647 0.094633944
000390 5b b9 1b 3d ab 42 45 3c 98 d3 26 3c 20 97 ac 3b
       0.038018566 0.012039821 0.010182284 0.005267039
0003a0 fa 7a ad 3c 8d a8 09 3d 42 af 11 3c 76 8a 95 bd
       0.021176804 0.03360801 0.008891882 -0.073018
0003b0 d6 32 f3 bd 4e 0e 9f 3c 7a fd 09 be 02 77 12 3d
       -0.118749306 0.019416 -0.134756 0.035758026
0003c0 2b 73 9d bd 16 4c ef 3d 10 c5 c1 bd 9b 8c f4 3b
       -0.07687982 0.11684434 -0.09461415 0.0074630505
0003d0 37 02 03 be cc 50 c8 ba e5 0b 50 be 6f 59 b7 bd
       -0.12793814 -0.0015282868 -0.20317037 -0.08952605
0003e0 9a 7a c3 b9 a0 ad 81 be c4 fd 64 3d 17 6e 14 3d
       -0.00037284644 -0.25327778 0.055906072 0.036237802
0003f0 c1 03 82 3b fb 67 9f 3d 38 6f 47 bc e0 0b bc 3d
       0.0039677327 0.077835046 -0.012172513 0.091819525

fc2.bias f4 [10]
000000 04 b2 08 bd 15 80 8b 3d 1d f4 c1 3b 03 aa 0f 3d
       -0.033372894 0.06811539 0.005918993 0.035074245
000010 77 85 93 bd fc 10 30 bc b0 36 22 ba aa f0 4b 3d
       -0.07203191 -0.010746237 -0.00061879586 0.049790062
000020 8d 93 ad 3c 61 ce 8b 3d
       0.021188522 0.06826473
